ATTENTION.ckpt (torch, 674805 bytes, 39 tensors)

exp_avg f4 [27, 30]
-0.001661153 -0.010464823 0.011780066 0.0076964432 0.02501191 -0.038843773 -0.0048587015 -0.03883113
0.0453242 0.0064264084 0.004379785 0.0039277887 0.012125099 -0.007349454 0.0008764665 -0.012417115
0.0053951684 -0.03139326 -0.03334318 -0.0046685636 -0.031523477 -0.006129652 0.0019230271 0.003561489
-0.050168652 0.01980955 -0.0064386413 -0.0077285483 -0.028696522 0.007855481 4.0248273e-05 0.0011671154
-0.0043996735 -0.010587522 -0.00030972707 0.0032530497 -0.0008496679 -0.00047409575 0.009831536 0.0010932047
8.9816895e-05 0.00320172 0.002680143 0.0017679589 -0.00014843837 -0.0013522806 0.00023958777 -0.0055446364
0.0010534986 -0.000106159576 0.0028691909 0.0072365776 -8.1952436e-05 -0.0012370064 0.00015629482 0.0015913151
-0.000119465236 -0.009651387 0.0022103812 -0.0028025557 0.00019980913 -0.012608975 -0.00843216 0.0064835805
0.0044367216 -0.004799045 -0.019056637 0.005049006 -0.00195721 0.004097351 0.0009105553 0.0021223074
0.003252693 0.013256587 0.008528506 -0.0032256942 0.0007266922 -0.012318526 -0.0009540036 -0.00024402565
0.004546778 0.0035858261 -0.0001404552 -0.00093162217 0.00413192 -0.0068329656 -0.00024449502 0.0048767626
-0.010538793 0.0069358214 0.00014992479 0.0040316605 0.014661679 0.0017787868 -0.009520307 -0.0077149174
0.012507184 -0.0016548957 0.0005978612 0.010747853 -0.0005255071 -0.0019846188 0.0068419045 -0.0004992575
-0.006109926 0.014740103 -0.0003463697 -0.0009674142 -0.0062177633 0.0002450202 0.001807995 -0.007557463
-4.391308e-05 0.00072247116 -0.010953009 -0.007508451 8.283936e-05 0.009889943 0.010742425 -0.0010685629
-0.00015990343 0.0026311672 -0.007855593 0.00806824 -0.0013375111 -0.00018115049 0.0027382674 0.008546876
-0.002361924 -0.0013444063 0.00013932546 -0.0064672376 0.00779772 0.0040160413 0.0072279745 -0.011174085
0.00029436057 0.00053106196 -0.006520113 0.00044033525 -0.011385144 0.011820089 0.00043175372 -0.0015521044
0.0057620537 0.0042370455 -4.405324e-05 0.00034486977 0.0031903991 -0.0013134719 -4.041527e-05 0.00072883925
-0.0003364979 -0.00068481866 0.0014978697 -0.007209784 0.00046770755 0.0017727417 -0.003453619 0.00055601494
8.68265e-05 0.003922215 -0.0021263144 -0.0007952788 0.001990579 -0.0013020226 0.00022920874 0.0020655186
-0.0018258154 0.00010865521 -0.00030013904 0.005826802 8.865705e-05 -0.0019851888 0.0010306537 -0.0035145418
-0.00027359516 -0.0012742841 -0.0016956332 0.0006400437 8.992421e-06 -0.002918226 -0.0006631103 -0.0052379584
-0.0003568717 -0.0011028305 0.0019008154 -0.00037309385 -0.0021201693 -0.0005907652 0.00012343365 -0.0008907294
0.00029816898 0.0003769439 0.000982394 -0.00027076039 0.00010866068 0.001542053 0.0013149579 -0.000108369495
9.89712e-06 0.0008269646 2.5408497e-06 -0.00014154467 -0.0003467203 0.00030205175 -6.61185e-05 0.00243607
0.003773804 -0.00052862026 -6.806568e-05 -0.0016709488 0.00072419975 0.0036413968 0.004658077 0.0064900694
-0.0018349877 -0.005982614 0.0023418546 0.0011221848 -4.2636195e-05 0.00101561 0.0048789848 0.00088248745
-0.0024604895 0.005454209 8.907191e-05 0.0045474884 -0.0051462944 0.0003944978 -0.0041251816 0.0033745596
0.00012813493 0.003169934 0.011912263 0.0012305209 0.0004303329 0.01133219 0.005085015 0.0053374413
-0.00019925031 -0.013635142 -0.0005057887 0.0050813733 0.0024962288 0.0070704934 0.008592888 0.0015601956
0.011117431 -0.004327918 0.00025987008 -0.006089079 -0.004183545 0.0008400758 -0.0017462744 -0.013606845
00000000: 0cbb d9ba a674 2bbc 2e01 413c 7232 fc3b
00000010: c7e5 cc3c a61a 1fbd be35 9fbb 640d 1fbd
00000020: dea5 393d 9f94 d23b 4d84 8f3b aeb4 803b
00000030: 5aa8 463c b0d3 f0bb acc2 653a 2871 4bbc
00000040: f4c9 b03b 3896 00bd dc92 08bd c0fa 98bb
00000050: c31e 01bd 3fdb c8bb 150e fc3a df67 693b
00000060: a57d 4dbd a347 a23c 3dfb d2bb c33f fdbb
00000070: f814 ebbc 46b4 003c 41d0 2838 e5f9 983a
00000080: 232b 90bb 4977 2dbc dd62 a2b9 1e31 553b
00000090: 3fbc 5eba 0e90 f8b9 7314 213c dd49 8f3a
000000a0: 145c bc38 f3d3 513b 57a5 2f3b dbba e73a
000000b0: 1fa6 1bb9 023f b1ba da39 7b39 c8af b5bb
000000c0: 8c15 8a3a fda1 deb8 0909 3c3b d020 ed3b
000000d0: e1dd abb8 0c23 a2ba 12e3 2339 ad93 d03a
000000e0: 6989 fab8 da20 1ebc 0bdc 103b 15ab 37bb
000000f0: db83 5139 e095 4ebc 0b27 0abc 3774 d43b
00000100: eb61 913b 4f41 9dbb aa1c 9cbc 2272 a53b
00000110: 8944 00bb 1243 863b 55b2 6e3a 6916 0b3b
00000120: 222b 553b 2832 593c 26bb 0b3c 2b66 53bb
00000130: 7d7f 3e3a a5d3 49bc 1916 7aba 23e1 7fb9
00000140: 23fd 943b 2e00 6b3b 2847 13b9 1b38 74ba
00000150: 0f65 873b 12e7 dfbb 912f 80b9 40cd 9f3b
00000160: e7aa 2cbc e345 e33b 2135 1d39 051c 843b
00000170: 8a37 703c 2e26 e93a 10fb 1bbc 6bcd fcbb
00000180: efea 4c3c 16e9 d8ba c9b9 1c3a c317 303c
00000190: 2fc2 09ba 6110 02bb 0e32 e03b 9be0 02ba
000001a0: c635 c8bb 7980 713c f498 b5b9 119a 7dba
000001b0: 61be cbbb 0e76 8039 3ffa ec3a 98a4 f7bb
000001c0: 502f 38b8 3864 3d3a 4074 33bc 7409 f6bb
000001d0: 0bba ad38 6d09 223c ff00 303c 050f 8cba
000001e0: c0ab 27b9 a96f 2c3b bfb4 00bc a730 043c
000001f0: 6d4f afba 37f3 3db9 8174 333b 3208 0c3c
00000200: 82ca 1abb ca36 b0ba e517 1239 1feb d3bb
00000210: 0484 ff3b ff98 833b a5d8 ec3b 8213 37bc
00000220: 6854 9a39 f736 0b3a aca6 d5bb ccdc e639
00000230: c188 3abc 0ca9 413c 015d e239 fb6f cbba
00000240: 9ccf bc3b ead6 8a3b cec5 38b8 a3cf b439
00000250: 0416 513b ce28 acba 9183 29b8 930f 3f3a
00000260: fc6b b0b9 6785 33ba 2b54 c43a 0d40 ecbb
00000270: a536 f539 575b e83a 1d56 62bb 88c1 113a
00000280: 9f16 b638 ed85 803b a359 0bbb 427a 50ba
00000290: 6074 023b a1a8 aaba c157 7039 a75d 073b
000002a0: 3350 efba d2dd e338 fb5b 9db9 c2ee be3b
000002b0: 64ed b938 f119 02bb 0017 873a 3a54 66bb
000002c0: 5271 8fb9 e105 a7ba 0240 deba 9bc8 273a
000002d0: 27de 1637 b53f 3fbb 94d4 2dba 2ea3 abbb
000002e0: 821a bbb9 da8c 90ba c824 f93a cf9b c3b9
000002f0: 8af2 0abb 95dd 1aba f86d 0139 d77f 69ba
00000300: 9053 9c39 8ea0 c539 acc3 803a d8f4 8db9
00000310: c2e0 e338 b61e ca3a aa5a ac3a 6e44 e3b8
00000320: cf0b 2637 a8c8 583a 7783 2a36 9c6b 14b9
00000330: 03c8 b5b9 b35c 9e39 19a9 8ab8 79a6 1f3b
00000340: ed51 773b 1b93 0aba 7cbe 8eb8 bd03 dbba
00000350: 39d8 3d3a 80a4 6e3b c8a2 983b a6aa d43b
00000360: f883 f0ba ce09 c4bb cd79 193b 4616 933a
00000370: 44d4 32b8 371e 853a e4df 9f3b bb56 673a
00000380: 2a40 21bb 39b9 b23b 1ecc ba38 1903 953b
00000390: 3fa2 a8bb 99d4 ce39 882c 87bb b727 5d3b
000003a0: f55b 0639 abbe 4f3b a72b 433c 6e49 a13a
000003b0: 4e9e e139 a6aa 393c 33a0 a63b b4e5 ae3b
000003c0: d9ed 50b9 ee65 5fbc e896 04ba a681 a63b
000003d0: c597 233b 99af e73b 2fc9 0c3c 7a7f cc3a
000003e0: e325 363c 35d1 8dbb 2c3f 8839 e686 c7bb
000003f0: 1e16 89bb 8838 5c3a 3fe3 e4ba 3fef 5ebc

exp_avg_sq f4 [27, 30]
4.0512634e-05 0.015600475 0.019189097 0.047773704 0.0031507954 0.016503682 0.0068229893 0.014168286
0.030046903 0.007022315 4.571288e-05 0.011056808 0.009014693 0.00078044756 0.0064380243 0.009059358
4.4760112e-05 0.017707689 0.006975145 5.415286e-05 0.013241433 0.013485575 4.619323e-05 0.0021578777
0.017569358 0.009943975 5.4597873e-05 0.021397583 0.017835695 0.004967354 9.432096e-07 0.00036243917
0.00061251933 0.0013799921 8.1654645e-05 0.00038073357 0.00017629509 0.00039493613 0.0010257764 0.000269097
1.0558554e-06 0.0005454566 0.00012614355 9.1992304e-05 0.00013571471 0.00023687496 9.163841e-07 0.0007790897
0.00013476712 1.0201854e-06 0.00030038776 0.00030184744 1.241315e-06 4.764671e-05 0.00032056676 0.00039210392
1.1087697e-06 0.0009927322 0.00050992914 0.00016321457 3.034623e-06 0.0013040781 0.0014986914 0.0033202735
0.00053254014 0.002196139 0.00074526225 0.0011691661 0.006555769 0.00048600102 3.9322063e-06 0.0013035774
0.00031675107 0.00034881412 0.0004994985 0.0013694542 3.1268307e-06 0.0029870882 0.000360775 3.7507004e-06
0.0011660559 0.0016535344 4.050905e-06 0.0002625663 0.0011339923 0.0015108417 3.763436e-06 0.00420693
0.0026241383 0.00036976015 3.7122377e-06 0.0010332209 0.0020212177 0.005387927 0.0004303789 0.0021643518
0.000988159 0.0010114507 0.004423877 0.00079234387 3.889443e-06 0.0011215507 0.0004929878 0.00019656889
0.00041949953 0.0011237512 3.2957885e-06 0.0022461182 0.00043625268 4.015e-06 0.0007876498 0.0014070763
4.3796895e-06 0.00024533147 0.0012175601 0.0012861164 4.400639e-06 0.0022500234 0.0035898606 0.0003904375
1.5338223e-06 0.0005656429 0.00054914854 0.0020561297 0.00017849027 0.00087025575 0.00030280853 0.0008073768
0.0021105786 0.00026981396 1.3757456e-06 0.0011016574 0.0001816458 9.66403e-05 0.00031289374 0.0005587199
1.391351e-06 0.00067561574 0.00030706282 1.584365e-06 0.0007633761 0.0004553965 1.8655668e-06 0.00010415666
0.0006297616 0.00041719602 1.7863188e-06 0.00078993995 0.0010804433 0.00019373283 3.2870636e-07 9.1940936e-05
0.00021921034 0.00042068397 2.3678489e-05 0.000105305684 4.5287827e-05 0.00011858532 0.00014768398 9.76078e-05
2.9996025e-07 0.0001263435 5.837686e-05 1.3142988e-05 3.936938e-05 7.669467e-05 2.635527e-07 0.00017302555
3.561807e-05 3.6438036e-07 0.00011303736 0.0001523485 3.4995813e-07 2.3165503e-05 8.535151e-05 9.270569e-05
3.5739777e-07 0.00021445363 0.0001571589 4.167722e-05 1.5359686e-07 7.771533e-05 6.440538e-05 0.00023345361
1.7013534e-05 9.2030656e-05 3.8421265e-05 4.8152215e-05 0.00020092088 4.283766e-05 1.5453166e-07 4.5568962e-05
3.3494012e-05 1.5296795e-05 2.4826046e-05 4.423033e-05 1.4761869e-07 0.00010091782 2.6313284e-05 1.9813514e-07
4.792058e-05 8.371674e-05 1.7480849e-07 1.211732e-05 6.971024e-05 4.4599605e-05 2.1198002e-07 8.7459215e-05
8.033694e-05 1.6969947e-05 1.9777478e-06 0.0005343817 0.0008671906 0.0021399234 0.00017241508 0.00066735933
0.00027741352 0.00052679563 0.0026688052 0.00070748327 1.8947787e-06 0.0005935279 0.00038810892 0.000121693614
0.00025308912 0.000604065 1.6706442e-06 0.0013833015 0.0003227502 2.0489608e-06 0.00052216253 0.0011634171
2.0933237e-06 0.00010041582 0.00084735965 0.00034826586 2.1869428e-06 0.0012684527 0.0009937038 0.0002787917
2.4668373e-06 0.0018462627 0.0007324096 0.0032190261 0.00025277358 0.0008567968 0.00059740356 0.000762021
0.0019332153 0.0003426795 2.8073366e-06 0.000923988 0.0006200768 0.0002549248 0.00032885064 0.00086780457
00000000: 1cec 2938 2299 7f3c 7432 9d3c 5cae 433d
00000010: 937d 4e3b bb32 873c 6293 df3b 1922 683c
00000020: ec24 f63c 731b e63b d5bb 3f38 9d27 353c
00000030: 5db2 133c f396 4c3a 10f6 d23b b46d 143c
00000040: cebc 3b38 b70f 913c c28f e43b 3122 6338
00000050: 98f2 583c 9af2 5c3c 9abf 4138 2e6b 0d3b
00000060: 9ded 8f3c 0eec 223c 0500 6538 fc49 af3c
00000070: 2a1c 923c 2fc5 a23b df30 7d35 c305 be39
00000080: 7a91 203a dae0 b43a 013e ab38 329d c739
00000090: dadb 3839 6e0f cf39 5873 863a 9715 8d39
000000a0: eab6 8d35 f9fc 0e3a 6745 0439 feeb c038
000000b0: a44e 0e39 a361 7839 70fd 7535 d33b 4c3a
000000c0: 4650 0d39 4eed 8835 5d7d 9d39 4741 9e39
000000d0: 429b a635 44d8 4738 be11 a839 4c93 cd39
000000e0: 09d1 9435 911e 823a c4ac 053a 9424 2b39
000000f0: 6da6 4b36 9aed aa3a bd6f c43a f298 593b
00000100: 2a9a 0b3a 19ed 0f3b b45d 433a b43e 993a
00000110: c7d1 d63b f4cd fe39 65f1 8336 cddc aa3a
00000120: 9c11 a639 0ae1 b639 c7f0 023a 427f b33a
00000130: 8bd6 5136 06c3 433b 6726 bd39 8bb4 7b36
00000140: 58d6 983a 68bb d83a 02ed 8736 0da9 8939
00000150: 78a2 943a 6f07 c63a 578f 7c36 49da 893b
00000160: bcf9 2b3b 5edc c139 c21f 7936 246d 873a
00000170: 6876 043b 358d b03b 7aa4 e139 ccd7 0d3b
00000180: 1d85 813a a792 843a 2cf6 903b 4cb5 4f3a
00000190: 1082 8236 ff00 933a da3b 013a 0f1e 4e39
000001a0: 46f0 db39 d54a 933a 372d 5d36 9c33 133b
000001b0: d8b8 e439 96b8 8636 497a 4e3a a56d b83a
000001c0: 3ff5 9236 d59f 8039 8a96 9f3a e892 a83a
000001d0: 34a9 9336 2175 133b de43 6b3b a2b3 cc39
000001e0: bcdd cd35 a747 143a bcf4 0f3a 22c0 063b
000001f0: 1e29 3b39 e021 643a 46c2 9e39 24a6 533a
00000200: a251 0a3b d175 8d39 42a6 b835 7d65 903a
00000210: 2c78 3e39 5eab ca38 e30b a439 0f77 123a
00000220: 75be ba35 ce1b 313a 46fd a039 5ea6 d435
00000230: 4e1d 483a 49c2 ee39 6364 fa35 ae6e da38
00000240: 9616 253a 1abb da39 72c1 ef35 f913 4f3a
00000250: a99d 8d3a c324 4b39 0f79 b034 6ad0 c038
00000260: d4db 6539 3f8f dc39 2ba1 c637 8fd7 dc38
00000270: 6ff3 3d38 02b1 f838 9edb 1a39 cab2 cc38
00000280: 390a a134 137b 0439 add9 7438 b480 5c37
00000290: 8d20 2538 23d7 a038 687e 8d34 316e 3539
000002a0: 9d64 1538 0ea0 c334 780e ed38 bdbf 1f39
000002b0: e1e1 bb34 8a53 c237 befe b238 fd6a c238
000002c0: 60e0 bf34 f5de 6039 05cb 2439 93ce 2e38
000002d0: 62ec 2434 1afb a238 6011 8738 3acb 7439
000002e0: 49b8 8e37 9500 c138 8526 2138 0cf7 4938
000002f0: 4aae 5239 96ac 3338 57ed 2534 4d21 3f38
00000300: ec7b 0c38 9e51 8037 8741 d037 f583 3938
00000310: 1e81 1e34 d8a3 d338 59bb dc37 f9be 5434
00000320: 55fe 4838 1591 af38 feb2 3b34 7e4b 4b37
00000330: 6631 9238 7610 3b38 a09c 6334 4f6a b738
00000340: 917a a838 af5a 8e37 73b9 0436 c015 0c3a
00000350: 2d54 633a f53d 0c3b 52ca 3439 baf1 2e3a
00000360: d071 9139 a818 0a3a 1fe7 2e3b 6676 393a
00000370: 1a50 fe35 fc96 1b3a 197b cb39 c335 ff38
00000380: 0cb1 8439 1e5a 1e3a e63a e035 e54f b53a
00000390: cc36 a939 e180 0936 bce1 083a cd7d 983a
000003a0: 077b 0c36 5596 d238 5821 5e3a 7497 b639
000003b0: 64c3 1236 3642 a63a 2b3f 823a ca2a 9239
000003c0: f18b 2536 4cfe f13a 2dff 3f3a 4cf6 523b
000003d0: b286 8439 a99a 603a 139b 1c3a 5dc2 473a
000003e0: f163 fd3a aaa9 b339 ad65 3c36 c937 723a
000003f0: a68c 223a 6da7 8539 9669 ac39 617d 633a

exp_avg f4 [90, 30]
-2.5455513e-05 -0.00079940725 -0.0016948478 -0.00039672444 -0.0004676282 0.00020510565 0.0003872919 -0.0013869458
-0.001427746 0.00081716233 -1.9933936e-05 0.000600165 0.00021538102 0.00010119774 0.00015677663 -0.0006471803
-5.7206584e-05 0.0009531633 0.00022000876 0.00010739729 -0.00010496518 0.0006194921 4.8740785e-06 -7.665007e-05
0.00058283174 -0.0003944071 8.829072e-05 -0.00066158193 0.0004986965 0.0011330883 -0.0001253304 0.0013310628
-0.00056294835 -0.00071952643 0.00041969784 -0.00014124493 0.0004210854 9.49411e-05 -0.00035815488 0.0005983238
-5.9495138e-05 0.0019082744 -0.00035274896 2.8731743e-05 0.00075802783 -0.00068995904 -6.3064996e-05 -0.0012164149
9.379881e-05 0.00013239612 0.0010046567 0.0019315805 2.1238002e-05 0.0005999683 -0.00076867716 0.00090834714
0.00013491265 -0.00026151878 0.00043816827 0.00044948517 4.5645374e-05 -0.00053548487 -0.00024412059 -0.0011687947
-0.00018287326 0.00013186733 -0.00024264943 -0.00014021997 0.00049875333 -0.000117643125 -1.7557615e-05 -0.0003513823
0.0006545435 -0.0004853722 -0.0002434119 -0.00041261766 -4.508111e-05 0.00053526385 -0.0003244946 -8.796588e-05
-0.00024255109 -0.0025135977 -2.5795563e-05 -0.0004042105 -0.00028326467 0.0004411575 -2.5205023e-05 0.00090686046
0.0010142439 0.0004192218 4.6561858e-05 -0.00080835633 0.00088923937 -0.00036246414 1.6273076e-05 0.00041065185
0.0003922949 -0.00026760838 -0.003400459 0.00039219504 8.716552e-05 -0.0015087248 0.0006003737 -3.5007648e-05
-2.7430096e-06 0.000792308 9.68915e-05 0.0005213055 -5.223493e-05 -4.6205634e-05 0.0009085714 0.00057455763
1.0951376e-05 0.00029575484 -0.0005040087 5.4424116e-05 -0.00011827492 0.0024702458 -0.0006546072 -0.00019542649
1.2838332e-05 0.00065472536 0.00063059357 -0.000617583 -0.00055909296 0.00031918287 0.0005065639 0.00033581193
-0.0011557756 0.0007823086 1.8150828e-05 -0.0009821462 -2.1019221e-05 -0.00022751323 2.6164236e-05 -0.00026947816
6.4101055e-06 -0.0009569344 -0.00034963732 -9.716662e-05 -1.0891259e-05 -0.0019132438 -2.8103115e-05 -0.00047814194
0.00019988003 0.0010532497 -9.604162e-05 0.0035499262 -0.000357075 0.0007756416 -3.7536098e-05 -0.0003054825
0.0026886952 -0.00071857014 0.00028748976 -0.0013532109 0.0003591606 -0.000423886 -0.0026045279 -0.00044115706
-8.4798674e-05 0.00035846484 -0.0003860505 -0.00019079643 4.7560457e-05 -0.00048644643 -0.0001514575 -0.00067042286
0.0007458917 0.00013835836 -0.00090240326 -0.00056801224 -2.0988791e-05 -0.00029116834 -0.00038398942 0.0016515993
0.00012001481 -0.0003858042 0.0021274637 0.0012468857 -5.7157093e-05 0.0016433846 -0.0024219598 0.0007506964
0.00043194823 0.0013839249 0.00033795225 4.3031218e-05 0.0002570806 -0.0014139176 1.9522928e-05 -0.0011351457
-0.0007051657 0.00011523026 0.000443316 0.0005998658 3.8651892e-06 -0.0008724015 9.747734e-05 1.5385636e-05
0.0006891755 0.0008313123 -2.7270019e-06 0.0003105239 -0.00040437523 2.774547e-05 -1.5046168e-05 -0.00023662037
-0.00065408275 0.0008995323 4.72333e-05 -0.0006062009 0.0019338345 -0.0006546017 0.0006418752 0.00015925345
0.00041320568 0.0016703216 0.00051123765 -9.711369e-05 5.413206e-05 -0.0007586683 0.0006939725 -6.8404195e-05
8.254357e-05 0.00045669478 0.00010042051 0.000391722 -0.00015215405 -0.00014493807 0.00017617499 -0.00019681604
8.5293495e-06 0.000110549605 0.0002046787 -0.0011393641 -0.00015286109 0.0019322423 -0.0018430827 -0.001086218
3.5375408e-05 -0.00029876755 0.0043582865 -0.001014638 0.00053116714 -0.00011055693 -0.00019870975 -0.00022973564
-7.467564e-05 0.0011746971 9.118793e-06 0.0010525546 0.00052998186 -0.0004952401 -0.0007348853 8.990708e-05
00000000: 4c89 d5b7 508f 51ba a825 deba 74ff cfb9
00000010: ff2b f5b9 a111 5739 700d cb39 2eca b5ba
00000020: 3523 bbba d636 563a cd37 a7b7 6454 1d3a
00000030: e7d7 6139 1f3a d438 6864 2439 89a7 29ba
00000040: 1af1 6fb8 b5dd 793a 27b2 6639 7b3a e138
00000050: c020 dcb8 6965 223a 048c a336 31bf a0b8
00000060: 2dc9 183a 6dc8 ceb9 b828 b938 036e 2dba
00000070: f5ba 023a 2284 943a 206b 03b9 0e77 ae3a
00000080: d392 13ba 9a9e 3cba e40a dc39 261b 14b9
00000090: 20c5 dc39 1d1b c738 bcc6 bbb9 d5d8 1c3a
000000a0: 6b8a 79b8 101f fa3a 2af1 b8b9 f304 f137
000000b0: 63b6 463a 5ede 34ba c341 84b8 1c70 9fba
000000c0: dab5 c438 d0d3 0a39 afae 833a 162d fd3a
000000d0: 4328 b237 3147 1d3a 0d81 49ba 251e 6e3a
000000e0: 5777 0d39 751c 89b9 f3b9 e539 e1a8 eb39
000000f0: 5973 3f38 c85f 0cba 9ffa 7fb9 3e32 99ba
00000100: abc1 3fb9 de45 0a39 b66f 7eb9 0308 13b9
00000110: c5be 023a 2cb7 f6b8 b148 93b7 bc39 b8b9
00000120: ac95 2b3a 8e79 feb9 623c 7fb9 9b54 d8b9
00000130: 7915 3db8 f350 0c3a ee20 aab9 527a b8b8
00000140: 5055 7eb9 2cbb 24bb 8d63 d8b7 37ec d3b9
00000150: 2483 94b9 284b e739 606f d3b7 60ba 6d3a
00000160: 61f0 843a ffca db39 6a4b 4338 e0e7 53ba
00000170: d81b 693a 1d09 beb9 2a82 8837 c24c d739
00000180: eeac cd39 ca4d 8cb9 3cda 5ebb 879f cd39
00000190: a2cc b638 67c0 c5ba 6662 1d3a 2dd5 12b8
000001a0: 8c14 38b6 e4b2 4f3a 3a32 cb38 38a8 083a
000001b0: d416 5bb8 eccc 41b8 322d 6e3a e99d 163a
000001c0: cdbb 3737 8b0f 9b39 741f 04ba 7345 6438
000001d0: 5d0a f8b8 d9e3 213b f299 2bba 66eb 4cb9
000001e0: 3764 5737 e0a1 2b3a 6b4e 253a 4be5 21ba
000001f0: 1890 12ba 0058 a739 eeca 043a ea0f b039
00000200: 657d 97ba d713 4d3a 9b42 9837 5cbb 80ba
00000210: 6f52 b0b7 9e90 6eb9 457b db37 bf48 8db9
00000220: 6316 d736 c8da 7aba 874f b7b9 efc5 cbb8
00000230: 9ab9 36b7 cfc5 faba fbbe ebb7 20af fab9
00000240: e396 5139 320d 8a3a f469 c9b8 e1a5 683b
00000250: cc35 bbb9 6d54 4b3a 1470 1db8 2b29 a0b9
00000260: d234 303b 6d5e 3cba 39ba 9639 395e b1ba
00000270: b84d bc39 043d deb9 bab0 2abb 194b e7b9
00000280: f1d5 b1b8 56f0 bb39 d266 cab9 8710 48b9
00000290: a77b 4738 bc09 ffb9 90d0 1eb9 51bf 2fba
000002a0: f287 433a 4a14 1139 428f 6cba a8e6 14ba
000002b0: 1611 b0b7 f4a7 98b9 3052 c9b9 7a7a d83a
000002c0: 76b0 fb38 c345 cab9 eb6c 0b3b 8b6e a33a
000002d0: f6bb 6fb8 d666 d73a beb9 1ebb 62ca 443a
000002e0: 1c77 e239 d064 b53a 2f2f b139 6b7c 3438
000002f0: c6c8 8639 3453 b9ba 2bc5 a337 2bc9 94ba
00000300: deda 38ba c6a7 f138 de6c e839 5040 1d3a
00000310: b9b1 8136 e0b1 64ba c06c cc38 6710 8137
00000320: c9a9 343a 6dec 593a 8901 37b6 d0cd a239
00000330: 5302 d4b9 f1be e837 cd6e 7cb7 4c1d 78b9
00000340: c076 2bba 97ce 6b3a 5f1c 4638 74e9 1eba
00000350: b878 fd3a 9499 2bba 8443 283a 46fd 2639
00000360: 87a3 d839 b1ee da3a 9404 063a 84a9 cbb8
00000370: db0b 6338 5ee1 46ba b5eb 353a 3974 8fb8
00000380: 3e1b ad38 8970 ef39 da98 d238 0960 cd39
00000390: 8b8b 1fb9 84fa 17b9 9dbb 3839 6760 4eb9
000003a0: 4719 0f37 ded6 e738 059f 5639 b756 95ba
000003b0: 5649 20b9 4b43 fd3a 9893 f1ba 6e5f 8eba
000003c0: 0e60 1438 e7a3 9cb9 f5cf 8e3b 9afd 84ba
000003d0: 063e 0b3a cdda e7b8 be5c 50b9 31e5 70b9
000003e0: 2e9b 9cb8 4bf8 993a ebfc 1837 dff5 893a
000003f0: 7bee 0a3a 00d3 01ba 51a5 40ba 7f8c bc38

exp_avg_sq f4 [90, 30]
1.30699975e-08 3.884211e-06 9.795497e-06 5.0642243e-06 1.6218099e-06 9.709111e-06 1.113426e-06 8.31068e-06
1.28759375e-05 2.0995503e-06 1.3927373e-08 5.6280683e-06 3.5460316e-06 6.1032597e-07 1.6740186e-06 5.781059e-06
1.3239137e-08 6.3592906e-06 2.5310965e-06 1.5465023e-08 3.1116115e-06 1.3750512e-05 1.3517522e-08 8.7108293e-07
2.7503343e-06 6.7460423e-06 1.6266897e-08 9.203772e-06 5.1953416e-06 2.5099291e-06 2.5540478e-08 4.3795235e-06
1.4720742e-05 7.603159e-06 1.7069045e-06 1.09094635e-05 1.9912623e-06 1.4887957e-05 2.5806448e-05 4.449318e-06
2.2746644e-08 1.1941123e-05 6.004591e-06 7.8936705e-07 3.8344665e-06 2.552124e-05 2.5901542e-08 8.991976e-06
7.440034e-06 2.806462e-08 4.2345882e-06 2.1474618e-05 2.6182628e-08 6.897391e-07 5.2694213e-06 1.6061675e-05
3.0022896e-08 1.882017e-05 8.601385e-06 3.3028198e-06 1.8039943e-08 3.9310116e-06 1.1458552e-05 5.477101e-06
1.8915259e-06 7.1080053e-06 1.6180137e-06 9.092105e-06 1.739451e-05 2.5310278e-06 1.7689521e-08 7.3508318e-06
3.691171e-06 6.509972e-07 2.4620008e-06 1.1040843e-05 1.9727107e-08 7.043761e-06 4.474999e-06 1.9604173e-08
3.2236803e-06 3.26362e-05 2.0282396e-08 1.2052323e-06 3.4609163e-06 9.662773e-06 2.1140577e-08 1.3681415e-05
6.8096397e-06 2.9297394e-06 3.425688e-08 5.9603703e-06 1.7849676e-05 1.2093491e-05 2.4882022e-06 8.949342e-06
4.065118e-06 9.00533e-06 7.724986e-05 6.766076e-06 3.1499837e-08 1.8517812e-05 4.5187e-06 2.0408638e-06
4.4675908e-06 6.1092205e-06 3.716061e-08 1.4816198e-05 5.2740393e-06 4.6794288e-08 1.2230752e-05 9.809509e-06
3.5722152e-08 1.038047e-06 6.5376194e-06 1.5063162e-05 4.90443e-08 2.5631864e-05 1.1786103e-05 3.1451348e-06
3.900049e-08 1.5054655e-05 8.217774e-06 1.2732614e-05 4.6184737e-06 8.095803e-06 3.874914e-06 1.4732493e-05
7.091728e-05 8.229521e-06 3.6208263e-08 1.3481211e-05 9.183406e-06 1.4089611e-06 2.6800708e-06 1.6331214e-05
4.2375177e-08 1.5497999e-05 5.3332997e-06 5.5444637e-08 7.833448e-06 1.3641505e-05 3.6498218e-08 2.3331038e-06
8.604144e-06 1.4695689e-05 5.801264e-08 5.0954113e-05 1.4016204e-05 4.6760642e-06 4.12154e-08 5.8639043e-06
6.9190995e-05 1.589896e-05 2.5231875e-06 9.350233e-06 6.916803e-06 1.2735953e-05 6.625753e-05 7.4629897e-06
3.4788567e-08 1.7143262e-05 4.5708293e-06 1.582402e-06 3.289969e-06 5.319466e-06 3.9867516e-08 1.9142897e-05
4.1848693e-06 5.2076828e-08 8.620539e-06 1.363455e-05 4.0615646e-08 1.1113618e-06 8.977529e-06 1.2049155e-05
5.1725756e-08 2.4229847e-05 1.8736737e-05 4.6148457e-06 2.9033503e-08 1.3893874e-05 1.6376689e-05 1.1599756e-05
2.8622644e-06 1.6670345e-05 3.2957423e-06 9.099118e-06 3.5178815e-05 1.3449676e-05 2.5999109e-08 1.330013e-05
5.6684285e-06 1.2724406e-06 1.5196447e-06 1.3218193e-05 2.8345232e-08 1.1628566e-05 1.9753268e-06 3.4278944e-08
9.920493e-06 4.515337e-06 2.9993036e-08 2.8913848e-06 9.700512e-06 8.227789e-06 3.673366e-08 3.1766285e-05
1.5126666e-05 3.517477e-06 4.4592298e-08 2.0777237e-05 2.6550184e-05 1.9393487e-05 5.8805817e-06 1.287866e-05
5.9180916e-06 1.5175494e-05 5.9832517e-05 3.7573373e-06 4.778952e-08 1.1950952e-05 9.841498e-06 1.3145772e-06
4.6940613e-06 3.1254942e-05 4.8517556e-08 1.6551012e-05 5.245489e-06 5.9215363e-08 1.4949294e-05 4.4145363e-06
5.1296404e-08 2.7324404e-06 1.972306e-05 1.2811567e-05 6.3695204e-08 9.6339514e-05 1.7002232e-05 4.0038194e-06
4.069507e-08 2.4856901e-05 7.799561e-05 1.8978193e-05 5.2216697e-06 1.5344014e-05 6.0176135e-06 1.16901465e-05
4.078877e-05 1.1879938e-05 3.9006128e-08 2.0396395e-05 7.8374715e-06 1.3032559e-06 3.9494885e-06 8.753142e-06
00000000: 758a 6032 1e55 8236 5757 2437 5bed a936
00000010: f7ac d935 50e4 2237 0771 9535 196e 0b37
00000020: bb05 5837 00e6 0c36 3c45 6f32 bdd8 bc36
00000030: 5cf8 6d36 48d5 2335 d7ae e035 ebfa c136
00000040: 5772 6332 e461 d536 e8db 2936 f2d7 8432
00000050: 14d1 5036 00b2 6637 b13a 6832 5dd4 6935
00000060: 6292 3836 105c e236 49bb 8b32 e669 1a37
00000070: a553 ae36 4170 2836 1b64 db32 d2f3 9236
00000080: 1bf9 7637 a31e ff36 cb18 e535 ca07 3737
00000090: a0a1 0536 4ac7 7937 ed7a d837 5a4b 9536
000000a0: 6664 c332 bc56 4837 0b7b c936 e4e4 5335
000000b0: d1a9 8036 7216 d637 187e de32 3edc 1637
000000c0: 68a5 f936 c112 f132 d616 8e36 6424 b437
000000d0: 35e8 e032 8326 3935 fccf b036 2fbc 8637
000000e0: 86f2 0033 02e0 9d37 ab4e 1037 03a6 5d36
000000f0: 41f6 9a32 22e7 8336 1b3e 4037 f0c7 b736
00000100: 56e0 fd35 4d81 ee36 872a d935 4b8a 1837
00000110: 6dea 9137 bada 2936 abf3 9732 2aa7 f636
00000120: d6b5 7736 30c0 2e35 da38 2536 0f3c 3937
00000130: 5e74 a932 7259 ec36 f327 9636 0866 a832
00000140: 6856 5836 dae2 0838 7639 ae32 77c3 a135
00000150: 1742 6836 4b1d 2237 9f98 b532 3b89 6537
00000160: 5c7e e436 8a9c 4436 d721 1333 31ff c736
00000170: e3bb 9537 26e5 4a37 fdfa 2636 2225 1637
00000180: 1967 8836 9915 1737 3401 a238 2608 e336
00000190: 704a 0733 b356 9b37 569f 9736 c6f5 0836
000001a0: 50e8 9536 cefd cc36 869a 1f33 1693 7837
000001b0: a7f7 b036 ddfa 4833 ae32 4d37 8593 2437
000001c0: ec6c 1933 0653 8b35 b95d db36 cab7 7c37
000001d0: c7a4 5233 0204 d737 edbc 4537 0111 5336
000001e0: 7e81 2733 4093 7c37 12df 0937 299e 5537
000001f0: 63f8 9a36 36d3 0737 4205 8236 932b 7737
00000200: 6db9 9438 8611 0a37 6883 1b33 5c2d 6237
00000210: 6e12 1a37 891b bd35 44db 3336 04ff 8837
00000220: 0000 3633 b301 8237 b2f4 b236 0622 6e33
00000230: 676c 0337 d1dd 6437 37c2 1c33 6b92 1c36
00000240: 845a 1037 818d 7637 9229 7933 90b7 5538
00000250: 2327 6b37 16e7 9c36 d004 3133 8ec2 c436
00000260: a21a 9138 c25e 8537 0854 2936 f2de 1c37
00000270: e316 e836 80ac 5537 bef3 8a38 986a fa36
00000280: 6f6a 1533 e0ce 8f37 205f 9936 eb62 d435
00000290: 3dc9 5c36 dd7d b236 cc3a 2b33 0f95 a037
000002a0: c16b 8c36 14ab 5f33 efa0 1037 f2bf 6437
000002b0: 6071 2e33 1a2a 9535 329e 1637 ba26 4a37
000002c0: 1229 5e33 3341 cb37 d62c 9d37 39d9 9a36
000002d0: 5965 f932 bc19 6937 ac60 8937 939c 4237
000002e0: 5415 4036 4bd7 8b37 6c2c 5d36 6aa8 1837
000002f0: f78c 1338 eba5 6137 a554 df32 a023 5f37
00000300: 6e33 be36 bac8 aa35 98f6 cb35 b5c3 5d37
00000310: d37b f332 5018 4337 db8f 0436 193a 1333
00000320: 3170 2637 7382 9736 b1d1 0033 9d09 4236
00000330: 62bf 2237 160a 0a37 16c5 1d33 ca3c 0538
00000340: 89c8 7d37 cb0d 6c36 c085 3f33 c74a ae37
00000350: 16b8 de37 32af a237 d051 c536 6c11 5837
00000360: 0594 c636 409a 7e37 adf4 7a38 9026 7c36
00000370: 2241 4d33 f380 4837 e91c 2537 8770 b035
00000380: ae81 9d36 bd17 0338 9e61 5033 07d7 8a37
00000390: 6802 b036 fb53 7e33 bbce 7a37 9420 9436
000003a0: fe50 5c33 f85e 3736 f372 a537 43f1 5637
000003b0: cfc8 8833 e209 ca38 04a0 8e37 8c58 8636
000003c0: b4c8 2e33 ca83 d037 9391 a338 5c33 9f37
000003d0: cd35 af36 05b7 8037 e8ea c936 cc20 4437
000003e0: 9c14 2b38 f24f 4737 b187 2733 ed18 ab37
000003f0: af7d 0337 88eb ae35 d985 8436 75da 1237

exp_avg f4 [90]
-0.0011084381 -0.0032997048 -0.0034667128 0.0005047826 -0.0011392543 -0.0014681923 0.001042909 -0.001104167
-0.0035094449 0.000154439 0.00084828935 0.0004943983 0.002495072 0.0011513489 -0.0026276957 0.00027088917
-0.00050359656 0.0024216378 -0.003785939 -0.0012293786 0.0008228439 0.007483699 0.00015588694 -0.0010456764
0.0034786216 0.00071033 8.5466934e-05 0.008571793 -0.0040817554 -0.0013989203 1.6302177e-09 2.7407612e-10
-1.689826e-10 -3.7813908e-10 1.7273294e-10 -8.259531e-10 -1.9324178e-10 -4.8422377e-10 -4.915255e-10 1.5809279e-10
-5.2637417e-10 -3.6810197e-10 -1.932346e-09 1.8619528e-09 -1.7495717e-09 4.929603e-10 1.2085402e-09 8.5378016e-10
-7.1058534e-11 -9.735508e-10 1.5190449e-09 2.1964743e-09 2.2396751e-10 4.3297067e-12 3.1128287e-09 2.1620146e-09
1.180142e-09 9.2010344e-10 1.6330345e-09 2.467023e-09 0.01932301 0.02351259 0.028693296 0.012817892
-0.008671761 -0.041642196 0.019707492 -0.013168805 0.003664367 -0.011105505 0.00625573 0.014232148
-0.0042159376 0.026652718 0.009284891 0.024429852 0.012047137 -0.0037253608 -0.025295565 -0.013142772
-0.021763109 0.0019379059 -0.004658473 -0.0064212787 -0.031690035 -0.02285641 0.043743182 0.025859155
0.015413483 0.0022669595
00000000: 0349 91ba dc3f 58bb ca31 63bb 6353 043a
00000010: 0853 95ba 5c70 c0ba 38b2 883a b2b9 90ba
00000020: b7fe 65bb e7f0 2139 bc5f 5e3a 829a 013a
00000030: 5d84 233b dce8 963a 6b35 2cbb 2106 8e39
00000040: cb03 04ba 57b4 1e3b 841d 78bb 1a23 a1ba
00000050: 1fb4 573a d139 f53b 9575 2339 140f 89ba
00000060: 96f9 633b 7035 3a3a b63c b338 b570 0c3c
00000070: 3fc0 85bb fa5b b7ba 300e e030 c9ac 962f
00000080: 60cc 39af 58e2 cfaf 00ec 3d2f 4809 63b0
00000090: ba78 54af 381a 05b0 081c 07b0 2ad3 2d2f
000000a0: 4ab0 10b0 bf5d caaf 31ca 04b1 a4e7 ff30
000000b0: 9575 f0b0 ff80 0730 ba19 a630 70af 6a30
000000c0: 6642 9cae c6cd 85b0 a4c6 d030 c9f0 1631
000000d0: 4041 762f 8856 982c 76e9 5531 9092 1431
000000e0: 8e32 a230 86ea 7c30 4b71 e030 5488 2931
000000f0: 4a4b 9e3c 7a9d c03c 340e eb3c 2302 523c
00000100: 0014 0ebc 0291 2abd 9b71 a13c f9c1 57bc
00000110: e025 703b ddf3 35bc defc cc3b f52d 693c
00000120: d925 8abb cd56 da3c a81f 183c 1d21 c83c
00000130: 5b61 453c 2f25 74bb a538 cfbc c854 57bc
00000140: 8c48 b2bc 5501 fe3a 1ba6 98bb 9769 d2bb
00000150: 69cd 01bd 5e3d bbbc 0d2c 333d 94d6 d33c
00000160: d588 7c3c 4591 143b

exp_avg_sq f4 [90]
5.5982e-05 0.00010349586 7.767417e-05 0.00016708468 0.00016096447 0.00019907585 0.00011246843 0.00021377971
0.00016706821 0.00015881863 0.00021017689 0.00013041047 8.6885004e-05 0.00028880953 0.00016915222 0.00011164487
0.00024881773 0.00016162917 0.00012713193 9.173193e-05 0.00017900433 0.00016552876 0.00011251098 0.00017239255
0.00020274987 8.881873e-05 0.00020545113 0.0002573671 0.00014930642 0.00028014145 3.0359818e-17 1.4970004e-17
3.7507198e-17 1.2765353e-17 1.7934449e-17 2.0957693e-17 1.3636988e-17 1.5328196e-17 1.3348285e-17 2.6579442e-17
3.4755003e-17 9.529997e-18 2.1874098e-17 5.3680326e-17 6.579618e-17 2.0365772e-17 2.523429e-17 3.1866832e-17
3.081273e-17 2.0161303e-17 5.408611e-17 4.8565875e-17 6.4716725e-17 7.4421407e-17 7.849605e-17 4.3502037e-17
2.0574121e-17 1.4382353e-17 1.666994e-17 2.3474062e-17 0.008802507 0.005415487 0.007837902 0.004293021
0.005530727 0.0075374306 0.0041831806 0.007908062 0.004357921 0.010506244 0.003362772 0.005794166
0.0064849122 0.023678867 0.0062999157 0.009669568 0.0074843448 0.0051481994 0.005876253 0.011939568
0.0073494776 0.00868656 0.0060704844 0.015038326 0.011153766 0.006492427 0.012461614 0.0062896656
0.0049628452 0.0046880012
00000000: 37ce 6a38 eb0b d938 01e5 a238 7433 2f39
00000010: 92c8 2839 04bf 5039 07dd eb38 0e2a 6039
00000020: 082f 2f39 8d88 2639 ee62 5c39 cbbe 0839
00000030: 0836 b638 5c6b 9739 745e 3139 e222 ea38
00000040: c073 8239 007b 2939 b84e 0539 3460 c038
00000050: 1cb3 3b39 ca91 2d39 dff3 eb38 46c4 3439
00000060: 4199 5439 3144 ba38 5e6e 5739 3aef 8639
00000070: 238f 1c39 f3df 9239 8c02 0c24 ec12 8a23
00000080: aff8 2c24 ad7a 6b23 856a a523 f44c c123
00000090: db8e 7b23 ae60 8d23 7e3b 7623 ef26 f523
000000a0: 7747 2024 23cc 2f23 c1c0 c923 8b8e 7724
000000b0: 36b7 9724 52d7 bb23 c8be e823 b7f5 1224
000000c0: 4019 0e24 88f4 b923 9c6d 7924 77f8 5f24
000000d0: 033a 9524 a59a ab24 e4ff b424 249e 4824
000000e0: 45c3 bd23 5fa7 8423 c8c0 9923 9082 d823
000000f0: 6438 103c 6674 b13b 8b6a 003c 78ac 8c3b
00000100: 1a3b b53b 8dfc f63b 1013 893b d190 013c
00000110: e4cc 8e3b 6222 2c3c f461 5c3b fddc bd3b
00000120: 637f d43b 2ffa c13c 866f ce3b 1c6d 1e3c
00000130: 3c3f f53b 3ab2 a83b 958d c03b 2e9e 433c
00000140: e3d3 f03b 1352 0e3c eaea c63b 5063 763c
00000150: 49be 363c 6dbe d43b cc2b 4c3c 8a19 ce3b
00000160: 5d9f a23b ce9d 993b

exp_avg f4 [30, 30]
0.00024476784 0.0032353401 -0.0052322387 -0.00045318433 -0.0029513023 0.00041444186 0.00035717472 -0.003502997
-0.0012355013 0.0063677984 -0.0015312455 0.0020568399 0.0014986057 -0.008046045 -0.00014516599 0.0020901463
-0.0027431762 0.0049540307 0.0023547336 -0.002870671 -0.0016847332 -0.0011733565 -0.00022013312 -0.0022015062
-0.0007137452 0.0023728542 -0.0057969955 0.0029974056 0.0035774137 -3.1238476e-05 0.00090861594 -0.0018915435
-0.00207419 0.00016527016 0.005839104 -0.00043132307 0.0014986624 -0.0024251852 0.0013846668 -0.0035450421
-0.0036671292 -0.0053305663 -0.0020597365 0.009297758 -0.0024886297 0.009634313 0.005084396 -0.0033345816
-0.004572269 -0.004852746 -0.002154955 -0.0073127723 0.0030643959 0.01145516 -0.00056869246 -0.0037150378
0.0038128602 -0.0046265367 0.0041833324 -0.0058864183 0.0010563331 0.0013990676 0.0023761939 -0.0011520988
-0.0017015237 -0.0006225856 0.002071029 0.001645472 -0.002431393 -0.007540382 0.0028183307 -0.0026024203
-0.0011833047 0.010132646 0.0009449015 -0.0006325021 0.0021470634 -0.00089993014 -0.0035111445 0.0013763076
0.0020039268 -0.000168016 0.00038757545 -0.00039214443 -0.00094742764 -0.0024324867 0.005030751 -0.0046003344
-0.0014317932 0.0042864806 -0.006363387 -0.0007350957 0.0024506038 0.0035174156 0.004489841 0.0031873526
0.0019610026 -0.0011753003 -0.0028967964 0.0038276315 -0.00052676874 -0.0012688502 0.0007704164 0.0016514494
-0.0010264317 0.001641483 -0.0025258255 0.0036718312 6.416777e-05 -0.0018197299 0.007722814 0.00467974
-0.0007865216 -0.0017223 -0.0028455928 -0.006752767 -0.002211603 8.228601e-05 -0.002420386 0.0006007555
0.0033743049 0.0023185052 -0.0002485742 0.0012874888 -0.0031942024 0.0031991096 -0.007827122 -0.0022112005
0.003857393 0.0018805095 0.0006922309 -0.00051510223 -0.0044503966 -0.0026592703 0.0010030364 -0.00075023127
-0.004587038 -0.004335705 0.004684561 -0.012363275 -0.00041848395 0.0028497002 -0.0062512546 0.003321829
-0.004630755 -0.00014596872 -0.0042771176 0.0037355502 -0.0033136848 -0.0012816369 0.0010162516 0.005085434
-0.0017554226 0.0018695139 -0.00080127065 0.0022102601 5.7600162e-05 0.0031076914 -0.0023369417 -0.0013394578
0.0009225975 0.00015954266 -0.002296958 0.0069740033 0.0014453328 -0.0018705548 -0.0033337004 -0.0068490203
-0.003564057 0.0002610268 0.006630624 0.0019852242 0.0011350932 -0.0034299996 0.009936167 -0.00038852083
-0.003985703 0.0013188457 -0.0063741794 0.0040333685 0.0035434577 0.0029104569 -0.0035061797 -0.0026965728
0.0009231843 -0.0002198188 0.0023026112 -0.0023490144 -0.00086700695 0.00029441062 -0.0077295215 0.00033235873
-0.0007114461 0.0009343469 0.00080754014 -0.006143955 0.0050450703 -0.0030503585 0.0047270674 -0.0019638678
0.0007810376 -0.003461318 -0.0026816565 -0.0017568007 0.00048700228 0.0018503672 -0.0011365197 0.0038460565
-0.0012169619 -0.00089678715 -0.0019336168 -0.0010537066 -0.0009445067 0.00034220444 -0.0032647825 -0.003557175
0.0023087196 -0.00123956 0.0026265036 -0.011323663 -0.00023779047 0.003119659 0.0006632304 0.012069234
0.0053144144 0.002713851 -5.318014e-05 0.0062785586 -9.138532e-05 0.0073017995 0.0011393956 0.002510567
0.00018686008 -0.00069935096 0.009571831 0.004007602 0.0038453836 -0.0055794334 -0.0070676864 0.005146279
0.00087655295 0.0026180763 -0.002084487 -0.0028237447 0.0011898869 0.0007298609 0.0018709031 -0.0049291775
0.0055509475 0.0026531883 -0.006690738 0.0040054587 0.0012310684 0.002065382 0.0010158872 0.0049720244
00000000: 2f54 8039 0008 543b 3373 abbb 5f99 edb9
00000010: a36a 41bb 7249 d939 2e43 bb39 8a92 65bb
00000020: 8bf0 a1ba f7a8 d03b 13b4 c8ba 0ccc 063b
00000030: dd6c c43a 8fd3 03bc b337 18b9 d6fa 083b
00000040: dcc6 33bb 6c55 a23b e051 1a3b de21 3cbb
00000050: 44d2 dcba 50cb 99ba 89d3 66b9 2547 10bb
00000060: a11a 3bba e381 1b3b b9f4 bdbb 1f70 443b
00000070: 0b73 6a3b 0f06 03b8 2f30 6e3a abed f7ba
00000080: 22ef 07bb 5f4c 2d39 f455 bf3b 3423 e2b9
00000090: c46e c43a dbef 1ebb b57d b53a f053 68bb
000000a0: 3854 70bb 08ac aebb a5fc 06bb a055 183c
000000b0: 4718 23bb 3dd9 1d3c 019b a63b ff88 5abb
000000c0: f9d2 95bb c903 9fbb 253a 0dbb fb9f efbb
000000d0: 08d4 483b 6cae 3b3c 4e14 15ba fe77 73bb
000000e0: 2ee1 793b 349a 97bb 5614 893b dbe2 c0bb
000000f0: a874 8a3a eb60 b73a ebb9 1b3b 0502 97ba
00000100: a905 dfba 0335 23ba 1aba 073b e1ac d73a
00000110: 0158 1fbb 4f15 f7bb beb3 383b 5e8d 2abb
00000120: 1e19 9bba 6603 263c 44b3 773a 7fce 25ba
00000130: bfb5 0c3b 4ae9 6bba 3b1b 66bb 3865 b43a
00000140: 5054 033b 742d 30b9 7f33 cb39 bc98 cdb9
00000150: cb5c 78ba 5b6a 1fbb 00d9 a43b 67be 96bb
00000160: 02ab bbba 9b75 8c3b f683 d0bb 70b3 40ba
00000170: 4f9a 203b 7184 663b 841f 933b e7e2 503b
00000180: 2a84 003b 890c 9aba 2ed8 3dbb 00d9 7a3b
00000190: da16 0aba 8c4f a6ba c5f5 493a 7275 d83a
000001a0: 5589 86ba 0827 d73a 5288 25bb 1ba3 703b
000001b0: cf91 8638 0184 eeba a90f fd3b 8158 993b
000001c0: 922e 4eba ccbe e1ba 207d 3abb 5146 ddbb
000001d0: 8bf0 10bb f790 ac38 579f 1ebb 057c 1d3a
000001e0: 7123 5d3b 10f2 173b 1053 82b9 f5c0 a83a
000001f0: d355 51bb 27a8 513b 543d 00bc cae9 10bb
00000200: 51cc 7c3b 6e7b f63a d476 353a ed07 07ba
00000210: a2d4 91bb 2747 2ebb 5178 833a 2bab 44ba
00000220: dd4e 96bb 8812 8ebb f280 993b 558f 4abc
00000230: f767 dbb9 09c2 3a3b 53d7 ccbb 0bb3 593b
00000240: 97bd 97bb 2e0f 19b9 1027 8cbb 22d0 743b
00000250: 682a 59bb 99fc a7ba bf33 853a b6a3 a63b
00000260: 3516 e6ba 7a0a f53a 5d0c 52ba 03da 103b
00000270: b497 7138 69aa 4b3b 6027 19bb bf90 afba
00000280: 78da 713a e84a 2739 8f88 16bb 2e86 e43b
00000290: 5271 bd3a 672d f5ba 367a 5abb bf6d e0bb
000002a0: f492 69bb 6dda 8839 b545 d93b 891a 023b
000002b0: 68c7 943a d8c9 60bb 4ecb 223c 62b2 cbb9
000002c0: 809a 82bb 1edd ac3a 7ede d0bb 592a 843b
000002d0: 5b39 683b 5dbd 3e3b efc7 65bb fcb8 30bb
000002e0: da01 723a 297f 66b9 68e7 163b ecf1 19bb
000002f0: da47 63ba 205b 9a39 ed47 fdbb 6f40 ae39
00000300: 5780 3aba f6ee 743a 1ab1 533a 3b53 c9bb
00000310: 1e51 a53b 86e8 47bb 84e5 9a3b 3cb4 00bb
00000320: 8cbe 4c3a 48d7 62bb bbbe 2fbb 7344 e6ba
00000330: 5754 ff39 0588 f23a 46f7 94ba 1f0e 7c3b
00000340: 7782 9fba 5e16 6bba 6a71 fdba 871c 8aba
00000350: c698 77ba e769 b339 f6f5 55bb 7e1f 69bb
00000360: e34d 173b bb78 a2ba 6b21 2c3b e386 39bc
00000370: 6557 79b9 3173 4c3b a4dc 2d3a 09be 453c
00000380: 8a24 ae3b ddda 313b be0d 5fb8 5ebc cd3b
00000390: 1fa6 bfb8 ef43 ef3b c657 953a 5388 243b
000003a0: dfef 4339 a654 37ba 2bd3 1c3c 3452 833b
000003b0: d502 7c3b aed3 b6bb 0d98 e7bb 1ea2 a83b
000003c0: 79c8 653a 0894 2b3b e39b 08bb 930e 39bb
000003d0: fbf5 9b3a 2354 3f3a 1739 f53a f084 a1bb
000003e0: b9e4 b53b 1de1 2d3b fa3d dbbb 3940 833b
000003f0: cd5b a13a 5c5b 073b 8527 853a 5dec a23b

exp_avg_sq f4 [30, 30]
0.00017958097 0.00011396916 0.00016998136 0.00010828446 0.00017700558 0.00017422285 0.0001222031 0.00019698763
0.00010274746 0.0003160302 0.00013588935 0.00017742008 0.000146078 0.00042685092 0.00015891436 0.00027438137
0.0002446448 0.00017027197 0.0001568922 0.00027916871 0.00018014757 0.00020285949 0.00014646644 0.00029629417
0.00028739346 0.00020205724 0.000250113 0.00021013133 0.00014218732 0.00015803325 0.00022062994 0.00013316397
0.00020404092 0.000139423 0.00020528775 0.00019603707 0.00015507199 0.00024004502 0.00012207917 0.00037115524
0.00017345711 0.00020045908 0.000167033 0.00051131047 0.0001765006 0.0003198801 0.00027300266 0.00018966486
0.00017195086 0.00032159584 0.00020614806 0.00023791588 0.00016383448 0.00032572844 0.0003783694 0.00022497954
0.00031205264 0.00026777547 0.00016908685 0.0001859786 0.00020699325 0.00013564454 0.00020229309 0.00013916603
0.00019323669 0.00019263799 0.00014717907 0.00022413867 0.00011856885 0.00033319855 0.00016840965 0.00020296397
0.00017519407 0.00045404944 0.0001843644 0.00030261173 0.00027648063 0.00019521944 0.00018149063 0.00033838217
0.00020811989 0.00023348701 0.00017470168 0.00031473956 0.00032761833 0.00023559804 0.000288745 0.00023390082
0.0001828194 0.00018385175 0.00024442558 0.00015643779 0.0002580816 0.00015957808 0.0002428924 0.0002378003
0.00018533526 0.0002781784 0.0001585808 0.0004286279 0.0002036248 0.00024335006 0.00020286876 0.0006103296
0.00020130021 0.00036992974 0.00033822883 0.00023008682 0.00021235165 0.0003837094 0.0002273664 0.00027785948
0.00021064263 0.0004116286 0.00039555217 0.00027194558 0.00034565275 0.00027407624 0.00019919135 0.00022587446
0.0002174202 0.00015398362 0.00022133146 0.00012708848 0.00022050795 0.00020593838 0.00014934035 0.00024120635
0.00012210279 0.00036246725 0.00016964412 0.00020795864 0.00017824488 0.0005337981 0.00017597675 0.00033773153
0.00027805855 0.00019663788 0.00016661007 0.00032440157 0.00020389633 0.00024991625 0.00018113156 0.00037075442
0.00036183078 0.00024202891 0.00032463158 0.00024277244 0.00016972204 0.00021208984 0.00021898617 0.00015027203
0.00022323463 0.00013885752 0.00021040828 0.0002093564 0.00016205582 0.00024135919 0.00013645728 0.00036679753
0.00016759691 0.00022307552 0.00018237218 0.000553593 0.00020769301 0.00033499033 0.00028081602 0.00021048241
0.00021037436 0.0003385143 0.00022174422 0.00026094052 0.00018251463 0.0003433166 0.00037465207 0.000237125
0.00032724914 0.00025825563 0.00019090729 0.00019749047 0.00020757562 0.00013909132 0.00020641016 0.00013863009
0.00021801525 0.00019923606 0.00015140742 0.00025828986 0.0001270203 0.00038631543 0.0001647612 0.00020487217
0.00016467195 0.00048606927 0.00018930133 0.00034117373 0.00027047144 0.00018439798 0.0001824785 0.0003363249
0.00020103146 0.0002561996 0.00018258541 0.00032935635 0.00037052104 0.00023118353 0.00030987736 0.00024247418
0.00016832519 0.00019059716 0.00025973513 0.00016947195 0.0002661642 0.00016788463 0.00028686126 0.00024277826
0.00018793921 0.00030712338 0.0001462355 0.00047820102 0.00021151279 0.00025945326 0.00020591985 0.00061437004
0.00022162856 0.00044032343 0.00034116526 0.00024913604 0.00022709713 0.000392115 0.00024644262 0.00032156598
0.00020931083 0.0004173185 0.00046280975 0.00027196755 0.00036177153 0.00033264427 0.00020565493 0.00024747226
0.00022059256 0.00015159007 0.00021744319 0.00014019094 0.00022366834 0.00023130258 0.00016970954 0.00025203786
0.0001428643 0.00040111018 0.00018666542 0.0002406247 0.00019163122 0.0005566192 0.00020433345 0.00037053172
00000000: e64d 3c39 ba02 ef38 063d 3239 c716 e338
00000010: 939a 3939 97af 3639 a523 0039 778e 4e39
00000020: 1f7a d738 dbb0 a539 857d 0e39 d709 3a39
00000030: 842c 1939 f6ca df39 40a2 2639 d8da 8f39
00000040: ab43 8039 098b 3239 6e83 2439 645d 9239
00000050: ffe5 3c39 aeb6 5439 c994 1939 ee57 9b39
00000060: 4cad 9639 54df 5339 9921 8339 b356 5c39
00000070: 1e18 1539 bab5 2539 e658 6739 eea1 0b39
00000080: d1f3 5539 1432 1239 8342 5739 4d8f 4d39
00000090: d29a 2239 98b4 7b39 6102 0039 9d97 c239
000000a0: 0ae2 3539 5332 5239 9425 2f39 7709 063a
000000b0: 0513 3939 95b5 a739 cc21 8f39 c6e0 4639
000000c0: b54d 3439 dd9b a839 7329 5839 0f79 7939
000000d0: fcca 2b39 88c6 aa39 e25f c639 7ce8 6b39
000000e0: ff9a a339 3764 8c39 e84c 3139 4003 4339
000000f0: 540c 5939 ce3b 0e39 a31e 5439 19ed 1139
00000100: 949f 4a39 defe 4939 1554 1a39 c406 6b39
00000110: 2ba8 f838 27b1 ae39 1f97 3039 bad2 5439
00000120: 4db4 3739 7c0d ee39 f151 4139 dca7 9e39
00000130: 9af4 9039 d2b3 4c39 854e 3e39 e368 b139
00000140: c23a 5a39 31d4 7439 2030 3739 a103 a539
00000150: 30c4 ab39 de0a 7739 b362 9739 4643 7539
00000160: 36b3 3f39 54c8 4039 3f26 8039 7309 2439
00000170: 204f 8739 6a54 2739 efb0 7e39 085a 7939
00000180: 8e56 4239 79d8 9139 b648 2639 77b9 e039
00000190: 1e84 5539 c92b 7f39 2bb9 5439 87fe 1f3a
000001a0: 1d14 5339 21f3 c139 4e54 b139 7643 7139
000001b0: b6aa 5e39 9b2c c939 3469 6e39 abad 9139
000001c0: f3df 5c39 dbcf d739 1d62 cf39 eb93 8e39
000001d0: ba38 b539 e4b1 8f39 05de 5039 b7d8 6c39
000001e0: 4afb 6339 aa76 2139 3615 6839 0e43 0539
000001f0: 2738 6739 2af1 5739 3f98 1c39 56ec 7c39
00000200: b808 0039 8809 be39 7fe2 3139 790f 5a39
00000210: 3fe7 3a39 96ee 0b3a 6686 3839 8f11 b139
00000220: 63c8 9139 9430 4e39 0db4 2e39 7114 aa39
00000230: 01cd 5539 3107 8339 22ee 3d39 d161 c239
00000240: 1bb4 bd39 24c9 7d39 5033 aa39 bb90 7e39
00000250: 6af7 3139 6f64 5e39 a79f 6539 5792 1d39
00000260: 1714 6a39 489a 1139 0ba1 5c39 ae86 5b39
00000270: 87ed 2939 5d15 7d39 f915 0f39 bb4e c039
00000280: f4bc 2f39 61e9 6939 293b 3f39 ff1e 113a
00000290: 2bc8 5939 a4a1 af39 7d3a 9339 f1b4 5c39
000002a0: f097 5c39 9f7a b139 0384 6839 d8ce 8839
000002b0: 6661 3f39 2dff b339 f36c c439 c2a4 7839
000002c0: a392 ab39 7c66 8739 492e 4839 7215 4f39
000002d0: a8a8 5939 0bd9 1139 ce6f 5839 3b5d 1139
000002e0: 069b 6439 06ea 5039 1fc3 1e39 146b 8739
000002f0: c130 0539 618a ca39 bfc3 2c39 f4d2 5639
00000300: caab 2c39 1dd7 fe39 307f 4639 90df b239
00000310: 10ce 8d39 f55a 4139 b357 3f39 c454 b039
00000320: f9cb 5239 8752 8639 6674 3f39 76ad ac39
00000330: 7e42 c239 db69 7239 0977 a239 ab40 7e39
00000340: 7380 3039 09db 4739 0f2d 8839 48b4 3139
00000350: f48b 8b39 300a 3039 de65 9639 4b92 7e39
00000360: 8c11 4539 6705 a139 cb56 1939 0eb7 fa39
00000370: 88c9 5d39 3a07 8839 30ec 5739 ad0d 213a
00000380: f764 6839 36db e639 6dde b239 799e 8239
00000390: ec20 6e39 c994 cd39 f834 8139 db97 a839
000003a0: 737a 5b39 8acb da39 46a5 f239 de96 8e39
000003b0: 27ac bd39 c266 ae39 13a5 5739 2abf 8139
000003c0: dd4e 6739 26f4 1e39 7601 6439 3800 1339
000003d0: 8388 6a39 d089 7239 0ff4 3139 f323 8439
000003e0: d8cd 1539 194c d239 9ebb 4339 3350 7c39
000003f0: 9df0 4839 15ea 113a 5842 5639 ed43 c239

exp_avg f4 [30]
-0.0034147082 0.0116161965 -0.0011281332 0.013206522 0.0004110818 0.008161506 0.0017915592 0.0070440914
0.0054831104 -0.0030895001 0.007484659 -0.0046822154 0.005173547 -0.0018887606 -0.0072458265 -0.009473626
0.00955186 0.018976392 -8.3501305e-05 -0.0025721772 -0.0014899027 -0.0015451666 0.021071913 0.0014462046
-0.0036250846 0.0019875038 0.0019485211 0.0033411272 -0.0070179403 -0.005531283
00000000: 4cc9 5fbb dc51 3e3c dedd 93ba 2b60 583c
00000010: 7786 d739 d6b7 053c c0d2 ea3a 1fd2 e63b
00000020: aaab b33b 3679 4abb df41 f53b 456d 99bb
00000030: dc86 a93b 4a90 f7ba 666e edbb 4437 1bbc
00000040: 687f 1c3c 6174 9b3c 6c1d afb8 f991 28bb
00000050: d748 c3ba 3087 caba 019f ac3c 938e bd3a
00000060: d492 6dbb c840 023b 8565 ff3a d0f6 5a3b
00000070: c0f6 e5bb c43f b5bb

exp_avg_sq f4 [30]
0.00078829523 0.001274732 0.0011126578 0.0016246419 0.00094886165 0.001338486 0.0011507114 0.001654778
0.0011977383 0.00085995684 0.0010166846 0.0013560033 0.00097144116 0.0011015963 0.0014017172 0.0011141321
0.0012265863 0.0016253722 0.0010156403 0.0008836865 0.0008826431 0.00074922835 0.0018094461 0.0013421573
0.0011456879 0.0012038931 0.0015846672 0.0011793984 0.0014391307 0.00104862
00000000: 99a5 4e3a e914 a73a 9ad6 913a f0f1 d43a
00000010: 07bd 783a 2370 af3a 78d3 963a 23e5 d83a
00000020: 6efd 9c3a ba6e 613a 4642 853a ecbb b13a
00000030: 50a8 7e3a 7063 903a d3b9 b73a 1208 923a
00000040: 68c5 a03a 710a d53a 3c1f 853a 32a7 673a
00000050: 2d61 673a dd67 443a f02a ed3a 53eb af3a
00000060: e82a 963a f3cb 9d3a 9cb4 cf3a 0b96 9a3a
00000070: 37a1 bc3a d971 893a
