model-data-loader-embedding.pth (torch, 7767 bytes, 4 tensors)

l1.weight f4 [35, 14]
0.081136785 -0.11877068 0.16769426 -0.108405605 -0.06969299 0.031006295 -0.24141712 0.9901792
0.39793733 -1.2541171 -1.1201795 2.2296 -0.33356923 0.27521378 -0.34910423 0.001745062
-0.30193186 -0.136975 0.13341634 0.08524044 -0.3121976 0.5444599 0.49317026 -1.0738392
0.39709154 1.5710503 -0.20566481 -1.2404107 0.42954013 -0.14300118 0.065086775 0.022330126
-0.12839194 -0.2594647 -1.0092356 0.32003123 0.26912388 0.8247125 -0.0068602315 -0.51604646
-1.0634239 -0.3872688 -0.5891278 0.21433137 0.30497226 -0.66823334 0.16573282 0.0792202
-0.11586008 0.36031625 -0.58857197 0.36978424 -0.73828846 -0.12322873 0.08887891 0.8848582
0.108263135 -0.05468522 -0.12773079 0.39164874 0.21502028 0.20423153 -0.60967034 0.38462913
-0.772252 -0.49638376 -1.4211532 -0.44783717 1.3994043 0.24227662 0.34554398 -0.10365856
-0.26355663 0.31195283 -0.0030058406 -0.45047367 0.19211952 0.18349002 0.8674614 0.86016256
0.014305549 -0.58096147 0.78387886 0.381323 0.1995919 0.10910556 -0.1752366 0.12763597
0.067413405 0.2378964 -0.29687643 -0.30322355 0.7285649 0.41299206 1.8865352 0.8467002
-0.9058259 -0.56697685 0.20949757 -0.024817461 0.25989774 -0.10550614 -0.2700292 -0.093714125
0.58992743 0.32833615 -0.3220713 -0.6727149 -1.2492476 0.2994141 1.3196263 -0.6725373
0.6212326 0.14467868 -0.37345177 0.37477034 -0.13069978 -0.4840175 -0.8229709 0.07447987
0.37849805 -0.36385566 -0.5565019 -0.627961 -0.95239735 0.16220085 -0.042254146 -0.19909261
0.0028577559 -0.07382427 0.34272987 0.03554576 -0.12866884 -0.47393456 -1.121474 0.21276973
-0.13739803 -0.49000698 1.3033407 -0.4227156 0.36367556 0.033605345 -0.6719239 -0.0125694685
0.4368499 -0.32413852 0.20327318 0.48144683 0.54551107 -0.4628066 1.1888119 1.2866992
0.43110004 0.22219457 -0.3215702 -0.034037698 0.89451426 -1.0347921 0.28248072 -0.54808855
-0.47124037 -0.623134 0.655485 -0.6318975 0.16072583 0.13025059 -0.39037153 0.03050228
0.75265735 -0.24050485 0.101936 0.38691792 0.079761006 -0.18209818 0.49967188 0.65942675
-0.055772763 -0.62978554 0.51088744 -0.059209824 0.18192099 0.6103554 0.8749974 0.0428279
0.8530861 -0.3617847 -0.73766345 -0.5807903 0.8074303 -0.075827725 0.016266821 -0.5814161
0.70305675 -0.58024 0.08670428 0.008394179 0.49939233 -0.37292564 -0.29411855 0.28910023
-0.34065282 -0.35631093 0.41601726 -0.6690861 0.5094724 -0.25805527 0.035293903 0.16512889
-0.34731916 0.5104966 0.63662434 0.6248119 -0.5138405 0.0009870238 -0.66467524 0.9098034
-0.10054134 -0.6898314 0.06603895 -0.12949556 0.09687494 -0.31302884 -0.22486374 0.28160968
-0.34653634 -0.057774138 0.10299526 -0.4413441 -0.028441722 -0.22940142 -0.3452449 -0.5277943
0.016790178 -0.47781044 0.22890823 -1.0236973 -1.6176715 0.024808282 0.2681979 -0.33629605
0.799395 -0.058375146 0.8033783 -0.50748867 -0.27774906 0.6057291 -0.10589185 -0.27019536
0.36990815 0.20934452 0.6327897 0.5651897 -0.07141942 -0.14519668 0.15227313 -0.077504635
00000000: 0b2b a63d 0b3e f3bd 0bb8 2b3e c203 debd
00000010: 33bb 8ebd ea00 fe3c 0d36 77be 627c 7d3f
00000020: 71be cb3e e986 a0bf 0b62 8fbf c4b1 0e40
00000030: 96c9 aabe d2e8 8c3e cabd b2be 90ba e43a
00000040: d096 9abe 2d43 0cbe 4b9e 083e 8a92 ae3d
00000050: 5dd8 9fbe b961 0b3f d080 fc3e 9073 89bf
00000060: 954f cb3e 2d18 c93f cc99 52be c7c5 9ebf
00000070: afec db3e e76e 12be 374c 853d abed b63c
00000080: 2d79 03be 8fd8 84be a22e 81bf 22db a33e
00000090: 9bca 893e 5c20 533f cbcb e0bb 9f1b 04bf
000000a0: 461e 88bf 1948 c6be 14d1 16bf af79 5b3e
000000b0: 5325 9c3e 5711 2bbf ddb5 293e 333e a23d
000000c0: 0d48 edbd 5f7b b83e a7ac 16bf 5c54 bd3e
000000d0: 7900 3dbf 585f fcbd 2506 b63d 1186 623f
000000e0: 10b9 dd3d 9cfd 5fbd dccb 02be 2f86 c83e
000000f0: 472e 5c3e 1222 513e 5b13 1cbf 1cee c43e
00000100: 4fb2 45bf 0326 febe 59e8 b5bf ea4a e5be
00000110: ae1f b33f 5d17 783e 24eb b03e f04a d4bd
00000120: e5f0 86be 48b8 9f3e a3fd 44bb 7ca4 e6be
00000130: fbba 443e cfe4 3b3e f311 5e3f 9d33 5c3f
00000140: d261 6a3c e4b9 14bf 49ac 483f c53c c33e
00000150: d261 4c3e bc72 df3d 3971 33be 01b3 023e
00000160: 0a10 8a3d 1d9b 733e 3000 98be 1e40 9bbe
00000170: 3b83 3a3f b273 d33e fc79 f13f 58c1 583f
00000180: 35e4 67bf 6525 11bf 8886 563e fd4d cbbc
00000190: 5111 853e 9a13 d8bd 4441 8abe 31ed bfbd
000001a0: 7c05 173f ad1b a83e 88e6 a4be 0b37 2cbf
000001b0: 58e7 9fbf ce4c 993e 84e9 a83f 682b 2cbf
000001c0: 1a09 1f3f a626 143e 1235 bfbe e6e1 bf3e
000001d0: 2ad6 05be 24d1 f7be 39ae 52bf e788 983d
000001e0: 7fca c13e 4a4b babe e976 0ebf 0dc2 20bf
000001f0: 50d0 73bf fb17 263e af12 2dbd efde 4bbe
00000200: 3049 3b3b 2e31 97bd 4a7a af3e 6e98 113d
00000210: c4c1 03be 8da7 f2be 768c 8fbf 4fe0 593e
00000220: 12b2 0cbe 32e2 fabe ded3 a63f 2e6e d8be
00000230: af33 ba3e c2a5 093d 3403 2cbf 2cf0 4dbc
00000240: caaa df3e 7cf5 a5be d826 503e 3380 f63e
00000250: 9da6 0b3f fdf4 ecbe fd2a 983f 8fb2 a43f
00000260: 25b9 dc3e f986 633e d9a4 a4be 1d6b 0bbd
00000270: e3fe 643f 1174 84bf 50a1 903e 884f 0cbf
00000280: 6b46 f1be b685 1fbf ddcd 273f 09c4 21bf
00000290: 5095 243e 6960 053e c7de c7be ebdf f93c
000002a0: 27ae 403f e746 76be d2c3 d03d 1b1a c63e
000002b0: bd59 a33d f277 3abe fed4 ff3e 31d0 283f
000002c0: fb71 64bd a039 21bf 85c9 023f 0086 72bd
000002d0: 7f49 3a3e 4040 1c3f d4ff 5f3f 4f6c 2f3d
000002e0: da63 5a3f d83b b9be 83d7 3cbf acae 14bf
000002f0: c1b3 4e3f 914b 9bbd ff41 853c afd7 14bf
00000300: 87fb 333f 9c8a 14bf 0392 b13d bd87 093c
00000310: 5ab0 ff3e 1cf0 bebe b596 96be f204 943e
00000320: 0c6a aebe 636e b6be 3700 d53e 3a49 2bbf
00000330: c96c 023f d21f 84be 5790 103d 8c17 293e
00000340: d1d3 b1be e8af 023f d0f9 223f acf3 1f3f
00000350: 0d8b 03bf 065f 813a 2828 2abf e0e8 683f
00000360: 9ee8 cdbd ca98 30bf 6e3f 873d 7c9a 04be
00000370: 5e66 c63d 5145 a0be ae42 66be 252f 903e
00000380: 366d b1be 93a4 6cbd 2eef d23d dbf7 e1be
00000390: 9dfe e8bc 35e8 6abe f1c3 b0be 871d 07bf
000003a0: 8e8b 893c 92a3 f4be eb66 6a3e 8308 83bf
000003b0: dc0f cfbf bd3a cb3c 3c51 893e ff2e acbe
000003c0: 27a5 4c3f c71a 6fbd 33aa 4d3f c7ea 01bf
000003d0: 2035 8ebe 1011 1b3f d4dd d8bd 0c57 8abe
000003e0: 9a64 bd3e 695e 563e 81fe 213f 46b0 103f
000003f0: 5844 92bd 70ae 14be 7ded 1b3e c0ba 9ebd

l1.bias f4 [35]
-1.6624684 0.11949638 0.74826556 0.2940614 -0.01667678 -0.50764406 0.6619559 -0.19148555
-0.36832532 -0.17747559 -0.003292863 0.52935505 -0.5024789 -1.1880985 -0.810906 0.29440367
-0.44327065 -0.329351 -1.540681 -1.0133004 0.20645179 -0.33187208 -0.6490104 0.87300456
-1.143625 -0.13667995 -0.860168 -0.4657345 -0.047220916 -1.4929368 -0.20206137 -0.4288218
-0.4827591 0.4040002 0.42268986
00000000: c4cb d4bf 85ba f43d 558e 3f3f 378f 963e
00000010: be9d 88bc f6f4 01bf f175 293f ca14 44be
00000020: 2395 bcbe 29bc 35be 13cd 57bb d083 073f
00000030: 75a2 00bf 9d13 98bf 8997 4fbf 14bc 963e
00000040: 5ff4 e2be b2a0 a8be 0935 c5bf d4b3 81bf
00000050: 1968 533e 23eb a9be 8c25 26bf 3a7d 5f3f
00000060: 4e62 92bf d4f5 0bbe f833 5cbf c174 eebe
00000070: b86a 41bd 8e18 bfbf 2de9 4ebe 888e dbbe
00000080: 332c f7be 1dd9 ce3e ce6a d83e

l3.weight f4 [27, 35]
-0.080678925 0.44183937 -0.6505638 0.3426985 -0.28006464 0.5431756 -0.12362772 0.25528643
1.1169972 -0.07576411 0.13070758 0.02389015 0.92354465 -0.17623235 0.016818658 0.37142986
0.23803507 -0.46031338 -0.08339673 0.42034015 -0.12119941 -0.25315562 -1.449272 -0.7935947
0.60766596 0.5103141 -0.60218513 0.55458915 -0.019580651 1.2702527 -0.45507744 0.2805978
0.29002476 0.097484194 0.624775 -1.0557407 0.009300668 -0.099818654 0.54186255 0.80250084
-0.60989577 0.63082325 0.49065122 0.01438619 -0.44525167 -0.11723003 -0.45089197 0.14303614
0.20858298 0.36826873 -0.5725602 0.47218332 0.09188842 -0.065361574 0.5697362 0.6310395
0.5186734 0.57742923 0.3767558 -0.45742682 -0.699068 0.39901233 0.2527011 -0.35277805
-0.4572065 0.59669 -0.28483224 -0.69446766 0.56656337 -0.5164092 -0.026835388 -0.7462254
0.21217479 0.0190435 -0.59178907 -0.1389102 -0.6045287 -0.3506818 -0.13690214 0.79010105
0.1405635 0.47052464 0.03777786 -1.5481704 0.6145173 0.07776205 0.67971134 0.27111572
0.35733652 0.24088341 -0.2524637 -0.2612765 0.32506505 0.25148252 0.08245168 0.013761367
-0.6879209 -1.2865176 0.0020476514 -0.22928494 -0.087021485 0.3592386 0.6949971 -0.336603
-0.04818484 0.41699553 0.38830125 0.18084699 0.48775122 -0.73328716 -0.29752594 -0.32908237
-0.50751406 -0.10203046 0.12090197 -0.28625935 -0.32923666 -0.15975156 -0.15758461 0.72054166
0.112462424 -0.048300672 0.43151212 -0.70678836 0.22817138 -0.03708994 -0.61303043 -0.13730864
-0.2867961 -0.5569292 -0.10780838 0.57289904 -0.2831112 -0.015161004 0.0007155173 -0.29154152
0.361247 -0.19549504 -0.61451465 0.59517676 0.73183286 -0.5493274 0.41149452 0.25135022
-0.5669036 0.106288165 -0.6537966 -0.22820629 -0.24294034 0.56564283 -0.3217478 -0.012207871
-0.14388493 -1.3091165 0.48843434 0.3450585 0.685485 0.34369802 0.08457703 -0.17331184
-0.28104645 0.29896694 -0.03462002 -0.47381172 0.2429707 0.33689675 -0.014798807 -0.90995777
-0.7658719 -0.7697746 -0.06394301 -0.07002205 0.09451533 -0.18933026 0.35455608 -1.212137
0.033528093 -0.58896655 0.565108 0.9176613 -0.53080034 1.0354079 0.55310065 0.23468666
-0.67793643 -0.36224487 -0.4060886 -0.0059642745 0.3153554 0.32958102 -0.74332994 0.24176453
0.24483906 -0.35560808 0.13919158 0.7086081 0.38283288 0.16564283 0.19095868 -0.825518
-0.22817403 0.19639918 -0.26227057 -0.120977946 0.14012317 0.9364849 -0.21809283 -0.50577366
0.22069196 -0.030975256 0.5737057 -1.0619793 0.27137884 -0.52396935 -1.04535 -0.03617605
-0.24446426 -0.4321047 0.104558736 0.28831106 0.30690876 0.76919675 -0.17509475 -1.3920763
0.34824133 0.6129604 0.13067858 0.014294646 0.27332488 -0.78177613 -0.0121902255 0.026141582
0.28459477 -0.95479345 -0.103512906 0.091523185 0.76282936 -0.43290228 -0.2540221 0.7733857
-0.63177407 0.67933834 -0.018923944 -0.12167471 -0.26565644 1.2201723 -0.48318633 0.60008115
0.27100527 -0.75369745 0.26149127 -3.0494103 -0.32412428 -0.3623151 0.1769467 -0.46984527
00000000: fe3a a5bd c538 e23e 598b 26bf 2e76 af3e
00000010: a264 8fbe 8e0d 0b3f 8830 fdbd e7b4 823e
00000020: c4f9 8e3f 372a 9bbd 35d8 053e 47b5 c33c
00000030: 6c6d 6c3f 4176 34be 48c7 893c 0e2c be3e
00000040: 77bf 733e 32ae ebbe e8cb aabd d336 d73e
00000050: 6537 f8bd 9d9d 81be bf81 b9bf 0629 4bbf
00000060: ff8f 1b3f f2a3 023f ce28 1abf 8ef9 0d3f
00000070: 9a67 a0bc a497 a23f e9ff e8be 84aa 8f3e
00000080: 207e 943e cba5 c73d 41f1 1f3f 8322 87bf
00000090: d461 183c b96d ccbd 81b7 0a3f b270 4d3f
000000a0: 2122 1cbf a27d 213f a336 fb3e 0eb4 6b3c
000000b0: 07f8 e3be 4c16 f0bd 50db e6be 1178 123e
000000c0: c796 553e b88d bc3e 4e93 12bf 03c2 f13e
000000d0: ff2f bc3d 4adc 85bd 3bda 113f ce8b 213f
000000e0: c8c7 043f 67d2 133f 23e6 c03e d933 eabe
000000f0: 1ff6 32bf 584b cc3e 0a62 813e 539f b4be
00000100: f816 eabe adc0 183f 88d5 91be a2c8 31bf
00000110: 4c0a 113f 6533 04bf e3d5 dbbc a108 3fbf
00000120: 5944 593e 1d01 9c3c 7d7f 17bf 7a3e 0ebe
00000130: 65c2 1abf 918c b3be 1330 0cbe 1044 4a3f
00000140: e1ef 0f3e 9be8 f03e f5bc 1a3d 732a c6bf
00000150: 0151 1d3f b641 9f3d 9001 2e3f aecf 8a3e
00000160: d0f4 b63e 24aa 763e ec42 81be 09c6 85be
00000170: ed6e a63e 51c2 803e 6ddc a83d 5b77 613c
00000180: 961b 30bf 9cac a4bf e431 063b acc9 6abe
00000190: 5238 b2bd 1fee b73e 54eb 313f 3a57 acbe
000001a0: 775d 45bd 7080 d53e 6ccf c63e f42f 393e
000001b0: 87ba f93e b5b8 3bbf 5255 98be 7c7d a8be
000001c0: 71ec 01bf 59f5 d0bd 749b f73d 9690 92be
000001d0: b591 a8be ea95 23be dc5d 21be 6b75 383f
000001e0: b352 e63d edd6 45bd 28ef dc3e 15f0 34bf
000001f0: c2a5 693e 9feb 17bd 90ef 1cbf a39a 0cbe
00000200: f0d6 92be e992 0ebf a4ca dcbd 83a9 123f
00000210: f4f3 90be dc65 78bc 8e91 3b3a ee44 95be
00000220: 5ef5 b83e da2f 48be d550 1dbf 815d 183f
00000230: 6659 3b3f b8a0 0cbf 69af d23e fab0 803e
00000240: 9820 11bf 9cad d93d 375f 27bf e9ae 69be
00000250: 5ac5 78be f8cd 103f 21bc a4be 8603 48bc
00000260: 9256 13be 2191 a7bf 1114 fa3e 82ab b03e
00000270: f27b 2f3f 30f9 af3e b936 ad3d a978 31be
00000280: 52e5 8fbe 3212 993e b9cd 0dbd 7397 f2be
00000290: 50cd 783e bb7d ac3e b276 72bc fef2 68bf
000002a0: 2e10 44bf f30f 45bf 8ef4 82bd b867 8fbd
000002b0: 4191 c13d cbdf 41be 6088 b53e 4e27 9bbf
000002c0: c154 093d 83c6 16bf ebaa 103f daeb 6a3f
000002d0: 88e2 07bf 3f88 843f 0198 0d3f b351 703e
000002e0: 3e8d 2dbf 2978 b9be d8ea cfbe f66f c3bb
000002f0: 4376 a13e d8be a83e df4a 3ebf 1f91 773e
00000300: 17b7 7a3e 4312 b6be 3d88 0e3e 5767 353f
00000310: ac02 c43e 469e 293e ac8a 433e 2655 53bf
00000320: 74a6 69be de1c 493e 5448 86be 49c3 f7bd
00000330: 737c 0f3e 79bd 6f3f ba53 5fbe 627a 01bf
00000340: 13fd 613e d2bf fdbc 60de 123f f0ee 87bf
00000350: 2bf2 8a3e db22 06bf 07ce 85bf 562d 14bd
00000360: d754 7abe d43c ddbe e422 d63d 829d 933e
00000370: 2523 9d3e 14ea 443f 0a4c 33be 8e2f b2bf
00000380: b04c b23e f9ea 1c3f 9bd0 053e 1734 6a3c
00000390: 3df1 8b3e 7b22 48bf 83b9 47bc df26 d63c
000003a0: 68b6 913e 586d 74bf 93fe d3bd 8270 bb3d
000003b0: c948 433f 5ea5 ddbe 2f0f 82be 9bfc 453f
000003c0: f2bb 21bf 1ee9 2d3f 6306 9bbc 9730 f9bd
000003d0: 1f04 88be 9b2e 9c3f 3364 f7be eb9e 193f
000003e0: 34c1 8a3e 51f2 40bf 2fe2 853e 8a29 43c0
000003f0: 9ef3 a5be 5d81 b9be 8431 353e 8f8f f0be

l3.bias f4 [27]
0.03185665 0.14350334 -0.8706974 0.10271778 -0.13446729 0.41818628 -0.3794394 -0.6151548
-0.7990609 0.98055315 -0.33430758 0.63730675 0.0075162626 0.29269412 0.5738397 -1.0389456
-0.5591702 -0.42262742 0.670182 0.26883364 0.0036847848 -1.6469097 -0.5498862 -0.21688777
-0.074532464 0.07219507 -0.81757843
00000000: 1e7c 023d 8af2 123e 06e6 5ebf b35d d23d
00000010: cbb1 09be 831c d63e e245 c2be c97a 1dbf
00000020: 418f 4cbf 8805 7b3f 5d2a abbe 8926 233f
00000030: fb4a f63b 01dc 953e 29e7 123f 2bfc 84bf
00000040: c725 0fbf 9f62 d8be 0c91 2b3f 90a4 893e
00000050: 6e7c 713b f0cd d2bf 58c5 0cbf d417 5ebe
00000060: 7aa4 98bd 02db 933d d24c 51bf
