model-data-loader.pth (torch, 13211 bytes, 4 tensors)

l1.weight f4 [35, 54]
000000 c8 74 e7 3e 0c 50 1d be f7 6e f0 3d ba 77 82 3e
       0.45206285 -0.15362567 0.11739915 0.2548197
000010 9f 06 b3 be bd 03 14 be 46 7b d5 3e 64 36 1c 3f
       -0.3496599 -0.14454551 0.41695613 0.61020494
000020 4e cc 66 be a3 93 8a be a0 54 62 be 4f 9e 64 3d
       -0.22538874 -0.27065763 -0.22102594 0.055815037
000030 c0 34 01 bf 02 09 4b be 41 e0 ec be d1 5c db bd
       -0.50471115 -0.19827655 -0.46264842 -0.10711063
000040 31 46 8d 3e c0 4f 27 bf ec e8 c6 be 2a 3a 6f 3e
       0.27592614 -0.65356064 -0.3884958 0.23362032
000050 45 0c 07 bb 4b 9c ae bd e2 b1 39 be 34 1f 0f 3d
       -0.0020606678 -0.08525904 -0.18134263 0.034941867
000060 93 d4 ab bd f7 aa c2 bd 26 4b 0a be 7a 66 0b 3e
       -0.08390155 -0.09505265 -0.1350523 0.1361331
000070 49 24 7a 3d 7c 00 88 3e 67 2f 4d bf d7 ab ec be
       0.06106976 0.2656287 -0.80150455 -0.46224853
000080 4d 0c 8e 3e 7f 4f 1d 3f 26 63 94 3d 28 20 b5 be
       0.2774376 0.61449426 0.072454736 -0.35376096
000090 5e 83 0b 3e 39 a0 b1 be 77 79 42 bf c3 fa 61 be
       0.13624331 -0.34692553 -0.7596659 -0.22068314
0000a0 77 34 91 be 2f b0 cb be 7e 4f 3d 3f 25 7d 53 3e
       -0.2836034 -0.39782855 0.7394942 0.20653208
0000b0 91 e9 b2 3e 1a f2 80 be 3c 99 eb be 41 c5 96 be
       0.34943822 -0.2518471 -0.46015346 -0.29447368
0000c0 62 f0 c4 3e ea ab d2 be c2 45 c0 be 25 a2 7b 3d
       0.38464648 -0.41146785 -0.3755322 0.06143393
0000d0 1c 49 11 3f 40 e2 f9 be 93 d0 57 be eb c8 14 3e
       0.5675218 -0.48805428 -0.21075659 0.14529769
0000e0 9c f7 37 bc 29 f0 78 3c 95 fd fd 3d f7 5a 94 3d
       -0.011228468 0.015193977 0.124018826 0.07243913
0000f0 13 f2 ee be b3 2f 87 be 78 0a 34 3d 70 32 d0 bd
       -0.46669063 -0.2640358 0.043955296 -0.1016587
000100 60 3e a5 3e cd 22 f7 be f9 9f 42 be e5 ba 26 be
       0.3227415 -0.48268738 -0.19006337 -0.16282232
000110 0f ab 8b 3e 32 ad ba bd 3b 31 73 be 07 49 fd be
       0.27278945 -0.09115066 -0.23749249 -0.49469778
000120 02 0b 34 bd d5 26 db bd 3b 22 86 be 86 fe d1 3d
       -0.04395581 -0.10700766 -0.2619799 0.102536246
000130 63 85 2f be 74 cc 51 be 7f 0a c7 be d2 52 a4 be
       -0.17140727 -0.20488149 -0.38875195 -0.32094437
000140 f1 45 e3 be b9 b5 94 3e de db 04 bd b0 93 08 bf
       -0.443893 0.29044893 -0.032436244 -0.53350353
000150 e1 f5 db be bb 1f 53 bc 42 7e a3 bd ad e5 3e 3d
       -0.42961028 -0.012885983 -0.07983066 0.046605755
000160 fc d2 16 bf 3f 94 b5 be 26 01 09 3e 0b 22 42 be
       -0.58915687 -0.35464665 0.13379344 -0.18958299
000170 8f 13 5b 3e fb 26 be be 41 8f 02 3e b1 44 f6 be
       0.2139418 -0.37139115 0.1274996 -0.48099282
000180 4b 92 b6 3e 7d 2e ad be 71 77 b9 3e ea 4b 44 bc
       0.35658488 -0.3382453 0.3622394 -0.01198099
000190 c6 09 80 be 24 ae 7e bf 85 a3 1d 3f e0 9f 14 bf
       -0.25007457 -0.9948447 0.61577636 -0.5805645
0001a0 14 6f e6 be a3 8d a3 3e 85 96 09 3f 39 40 9f bf
       -0.4500662 0.31943998 0.537453 -1.2441474
0001b0 82 c2 f5 3d d2 e2 87 3d 33 af b9 bd 84 3b 55 3e
       0.1199999 0.066350594 -0.0906662 0.20823485
0001c0 e9 66 de bd 5c 34 f0 3c 41 62 42 3d 3e ee e7 bd
       -0.10859472 0.029321842 0.047456983 -0.11324738
0001d0 cc 85 30 bd 9c 23 9a 3e 96 eb 93 3d 1d f9 95 3d
       -0.04309635 0.30105293 0.07222669 0.07322905
0001e0 0a 16 a7 3d f4 ae 80 3e 35 d7 1c 3e 86 cc 98 3e
       0.081585005 0.2513348 0.1531647 0.2984354
0001f0 a9 4d 42 3d 6c db 16 3f b8 54 3b 3e 1f aa a2 3e
       0.047437344 0.5892856 0.18294036 0.31770417
000200 31 dc 9d 3e 00 d6 c9 3d 63 77 dc 3e f0 d8 23 3f
       0.30832055 0.098552704 0.43059835 0.64002895
000210 fd 99 47 bd 5d 88 93 3e b0 ef fb bd 89 c1 b2 be
       -0.04873084 0.28814974 -0.12301576 -0.3491328
000220 1e c7 ad 3d 36 f8 14 3f 28 e7 d8 3e 09 63 0e 3f
       0.08485244 0.5819124 0.42363858 0.55619866
000230 5a af 87 bd cc cd 8d 3f f3 f9 14 3f 50 76 f0 3d
       -0.066252425 1.1078429 0.5819389 0.11741316
000240 2a 2a 35 be a6 a6 c9 3e 18 3c 18 3f 08 e1 c7 3e
       -0.17691866 0.39384955 0.59466696 0.39038873
000250 29 32 6b be 2e 32 70 3e 40 69 b7 be 3e 02 0d 3f
       -0.22968353 0.23456642 -0.35822487 0.55081546
000260 a2 e1 55 3f 19 9d 8c 3e 17 da b5 3e 98 e4 90 3e
       0.83547413 0.27463606 0.35517952 0.28299403
000270 fb b1 93 be a2 63 cd 3e 7f ed 67 3f 70 81 3d be
       -0.28846726 0.40115076 0.90596765 -0.18506408
000280 1f f6 90 bc 23 33 f3 bd 3a 3c 53 3e 4c 34 67 3e
       -0.017695485 -0.11874988 0.20628443 0.22578543
000290 2f 90 cc 3d dc 58 95 3e c7 19 29 bf 48 7a 1b 3e
       0.09988438 0.29169357 -0.6605496 0.15183365
0002a0 4c 8a 68 3e 4e d6 32 3f 7c 12 b1 bd 09 66 af 3e
       0.22709006 0.69858253 -0.08646104 0.34257534
0002b0 01 dc 14 3e 6e c4 7a bc 3f 49 fa be d6 5d de bd
       0.1453705 -0.015305622 -0.48884007 -0.108577415
0002c0 9c a7 99 3d 5f 75 a5 bd 17 82 a8 bd ac 86 b5 3e
       0.07502672 -0.080790274 -0.08227938 0.3545431
0002d0 c4 5a fe be fb 8a b2 3e 6e 39 f8 be eb ec e1 3d
       -0.49678624 0.3487166 -0.48481315 0.11031517
0002e0 d0 33 e8 3e 2c ab a4 3e bf b2 2d be 56 ac cd 3d
       0.4535203 0.32161844 -0.16962717 0.10042636
0002f0 08 47 76 3c bf f1 80 be 59 6a 5a be 95 24 8a 3f
       0.015031584 -0.25184438 -0.21329631 1.0792414
000300 2b a9 c0 3c b4 91 f8 3e 7f 18 08 be 2a b9 84 3e
       0.023518166 0.48548663 -0.13290595 0.2592252
000310 f2 5b 79 bd b6 0d 18 3d e0 45 dc 3e 0a b8 76 3e
       -0.0608787 0.03712245 0.4302206 0.24093643
000320 2b 2e 44 bd df c7 c9 3d 57 88 be 3e 92 c8 71 3e
       -0.04789559 0.098525755 0.37213394 0.23611668
000330 7a 34 88 3e 48 57 5b 3e 1c 38 dd be 78 d5 83 bd
       0.26602536 0.21420014 -0.4320687 -0.064372
000340 98 a9 04 bf 4a d7 50 3d 92 82 5b bd 30 bc da 3e
       -0.5182128 0.050986566 -0.05359132 0.427217
000350 87 a8 e7 3c 36 1b a0 be aa 33 2f 3f 85 c7 67 be
       0.028278602 -0.3127076 0.6843821 -0.22634704
000360 34 d8 5a 3e 2f 12 c4 bd 8c f1 16 be a4 75 12 be
       0.21371537 -0.09573781 -0.1474058 -0.14302689
000370 0a c1 98 bc fb 4b 15 3d 3c 1a d7 be fb 60 8c bc
       -0.018646736 0.036449414 -0.42012203 -0.017136088
000380 3a a8 75 be 5a d1 d6 3e 0e b1 93 3d aa 8a 2b bd
       -0.23989955 0.41956598 0.07211505 -0.041880287
000390 38 72 c4 ba 55 c5 ec be 9e a5 09 bf ed d1 34 bd
       -0.0014987653 -0.46244302 -0.53768337 -0.044145513
0003a0 21 12 22 bf a9 23 df bd 1c b2 bf 3e 27 6b 00 3f
       -0.6330891 -0.108954735 0.37440574 0.501635
0003b0 81 30 72 3e 32 75 35 3e be a2 71 bd 0a 61 d7 be
       0.23651315 0.17720488 -0.058993094 -0.42066222
0003c0 e4 1f e3 3d de 02 53 3e 5c eb 5e 3e 13 fb 98 be
       0.11090067 0.20606562 0.2176947 -0.29879054
0003d0 20 b2 8f 3e 6e 50 a9 be b6 17 09 3d bd 02 32 be
       0.28065586 -0.33069175 0.033469878 -0.17383857
0003e0 bc db f9 be 72 9d 67 bf c3 57 0b be 3d ef 8f 3e
       -0.48800457 -0.9047462 -0.13607697 0.28112212
0003f0 67 7e b6 bd 7d 54 43 3f 37 2f b9 3d d7 10 e7 3d
       -0.08910828 0.76300794 0.09042209 0.11282509

l1.bias f4 [35]
000000 b5 2b 6e be 35 70 2e be 7f 9d 29 3e b7 52 19 3e
       -0.2325886 -0.17034991 0.16563986 0.1497296
000010 9e d2 f8 bd c8 a7 b7 bd 2c 60 e4 3d 91 36 32 be
       -0.12149547 -0.089675486 0.11151156 -0.17403628
000020 21 db 8c bd 03 45 68 bd a8 95 00 be 7b f9 39 3e
       -0.06877733 -0.05670644 -0.1255709 0.18161575
000030 c7 5a 3b 3e ec 14 87 3e 3a ec 8a be 39 0e 5a be
       0.18296348 0.2638315 -0.27133352 -0.21294488
000040 23 f4 0c be bc cd d9 bc d8 63 38 3e d3 89 2d be
       -0.13765006 -0.02658736 0.18006837 -0.16947107
000050 24 fc 5e 3e 9c 90 c7 bd da 35 0d be 7c a4 72 3d
       0.21775872 -0.09744379 -0.13790074 0.059238896
000060 43 58 f2 bd 17 fc 54 bd 2a 89 95 bd 2b 38 54 3d
       -0.11833241 -0.051998224 -0.073015526 0.05181138
000070 30 de 2d be 16 9c 3a bc f7 e3 1a be de ef c8 3d
       -0.16979289 -0.011389753 -0.15126024 0.09811376
000080 ef 78 67 be 1d bd a6 bd b9 aa 61 3b
       -0.22604726 -0.08141539 0.0034434034

l2.weight f4 [27, 35]
000000 97 cf f3 be 8f 4c b0 bd ec 6f 54 3e 63 37 29 3d
       -0.47619316 -0.086083524 0.2074582 0.041312587
000010 15 ca 9e bc 72 b6 3e 3f 1a 7c 8e 3e 17 db 16 bd
       -0.01938347 0.7449714 0.27829057 -0.036830034
000020 8b 05 08 bf ad 62 86 be 66 40 f7 be 2f 3e 19 bf
       -0.5313346 -0.2624716 -0.4829132 -0.5986051
000030 60 ad b9 3e a6 6e a9 3e 72 47 18 3d 1a e7 e3 3c
       0.36265087 0.3309223 0.03717751 0.027820159
000040 42 71 40 3d 32 a6 d9 3e 07 71 29 3e 88 2a 08 be
       0.04698301 0.4250961 0.16547023 -0.13297474
000050 37 93 a1 3e 8e 77 b2 3d 2e 61 0d 3f 08 5e 0f bf
       0.3155763 0.087142095 0.5522641 -0.56002855
000060 00 24 4f be 79 4b a4 bd 62 20 dd 3d e9 73 a0 3e
       -0.20228577 -0.08022208 0.10797192 0.31338432
000070 42 7b 11 be 48 cd be 3e e4 43 b9 be 32 8e be 3e
       -0.14207175 0.37265992 -0.3618461 0.3721786
000080 d9 9c 10 be d3 e9 d5 be 5b 5f ee 3e 24 06 59 be
       -0.14122333 -0.41779956 0.46557125 -0.21193749
000090 3e b2 1f be 24 a6 66 3e 0c f9 9b 3e 32 e7 68 3d
       -0.15595338 0.22524315 0.30463445 0.05686111
0000a0 94 4a 1b 3e d0 d2 89 3e d7 a9 09 be 25 b9 b0 3c
       0.15165168 0.2691865 -0.13443695 0.021572659
0000b0 07 13 09 3f 06 03 2c 3e ed ea 14 3f ad bb f3 3d
       0.5354466 0.16798028 0.5817097 0.11901031
0000c0 87 7e 0e 3e a4 09 3a be f6 7c c6 be b1 bd ca be
       0.13915454 -0.1816774 -0.38767213 -0.39597848
0000d0 75 a5 07 be 6c fe 9a 3e 1b 32 a6 be a2 9c c2 3d
       -0.1324671 0.30272233 -0.32460102 0.095025316
0000e0 16 b2 d5 be 0c 1e f0 be 0f 8e 92 3e e2 f8 1b bd
       -0.4173743 -0.46897924 0.28624007 -0.03807915
0000f0 8e 8d ab be 89 5f bd bd af 67 4d 3e 6f f4 4e be
       -0.33506435 -0.092467375 0.20059083 -0.20210432
000100 5c 0f 82 be 6a 63 b2 be 9f 66 8e 3e c3 31 a3 be
       -0.25402343 -0.34841472 0.2781267 -0.31873903
000110 17 d0 06 be dc 53 e2 b9 de fd 35 3f c3 c1 cb 3d
       -0.13165317 -0.0004316856 0.71090496 0.099490665
000120 27 41 f5 be 36 32 85 3e 1c cc 0d 3f 51 9f 3b be
       -0.4790127 0.2601487 0.5538957 -0.18322493
000130 89 4c 3d 3e 15 37 e7 3d 9b dd 89 3e 88 5b 4d 39
       0.18486227 0.11289803 0.26926884 0.00019584422
000140 e9 15 dd 3c c0 12 39 bd ed af de 3c a8 f5 df be
       0.026987987 -0.045183897 0.027183497 -0.43742108
000150 fb d5 99 3e ed 97 69 3e 72 bf 7d 3f 8e 28 23 3e
       0.30046067 0.22811861 0.9912025 0.15933439
000160 5c 83 03 bf 47 5e 27 3e 4a 61 a6 3e c5 91 46 be
       -0.51372313 0.16344558 0.324961 -0.19391544
000170 14 eb 05 bf ea bb b1 3d 7a 61 aa be 68 a9 2e be
       -0.52311826 0.0867842 -0.33277494 -0.17056811
000180 0b 09 70 3f 91 c2 90 3e 64 2d 72 bd 8e af ca 3e
       0.937638 0.28273442 -0.05912532 0.39587063
000190 1c b3 a5 3e 4a f9 aa be 7a aa ee 3d 4d 2f 18 be
       0.32363212 -0.33393317 0.116536096 -0.14861794
0001a0 e4 36 53 be 97 bf 62 bd 7a a1 82 3e cb 7a f9 be
       -0.20626408 -0.055358496 0.25513822 -0.48726496
0001b0 59 4e 20 bd 76 08 df 3e e5 5a bd be 20 8f 47 bd
       -0.03913722 0.43561143 -0.3698341 -0.04872048
0001c0 cd 94 9f 3e d2 bb 35 be d4 85 b3 bd 89 a7 d3 3e
       0.31168213 -0.17747429 -0.0876576 0.41338757
0001d0 9a d1 00 3f c1 73 18 bd 40 fa b0 be 99 6c e9 bc
       0.50319827 -0.037219767 -0.34565926 -0.028494166
0001e0 8a f9 c2 bd a2 27 f7 be 78 2a 00 3d 41 ab 88 bc
       -0.09520252 -0.48272425 0.0312905 -0.016683223
0001f0 8c 73 79 3e 29 c9 99 3e 89 90 e9 bd 30 d5 81 bc
       0.24360484 0.30036286 -0.11404521 -0.015848726
000200 9e 5d 3a be 1f b9 6f bd 71 69 bc 3e 61 46 bd 3e
       -0.18199775 -0.058526155 0.36799195 0.36967757
000210 c5 0a d1 be c9 03 c4 3e 91 9c e9 3e ae df 53 be
       -0.4082853 0.38284138 0.45627263 -0.20690796
000220 20 aa 9c be 31 39 da 3e 71 25 12 3e 4c 80 82 3e
       -0.30598545 0.4262176 0.14272095 0.25488508
000230 71 38 99 3e e0 5e 21 3e b0 01 69 3a 88 50 20 3f
       0.29925874 0.15758848 0.0008888496 0.6262288
000240 ac 57 82 be d1 c3 b2 be 03 b6 25 3e 4a ee a6 be
       -0.25457513 -0.3491502 0.16182713 -0.32603675
000250 2f e3 db 3e 5f bc 58 3e 0a 45 e6 be be 25 01 bf
       0.42946765 0.21165608 -0.44974548 -0.50448215
000260 35 1d dd bd 8c 05 81 3e 37 44 c6 3e 3d 9c 2c be
       -0.107965864 0.25199544 0.3872392 -0.16856475
000270 f4 33 79 3d e8 22 e7 bd 45 4a 03 be 8e 06 b6 3e
       0.060840562 -0.11285955 -0.128213 0.35551876
000280 69 8e 25 3e 56 2d 17 bd 35 d3 9c be 09 7b bb be
       0.16167606 -0.03690847 -0.30629888 -0.36617306
000290 de f4 13 3e a5 2b 4d be f3 fe fd 3d ae 7b c5 bd
       0.14448878 -0.2003618 0.12402143 -0.09642731
0002a0 63 6d 55 3f a0 69 3a 3f 9f 61 86 3e 9f 1b 8f be
       0.83370036 0.7281742 0.26246354 -0.2795076
0002b0 04 8b 8a bc 98 2b cf 3e a4 d2 13 bf b3 ce b4 be
       -0.016911991 0.40462947 -0.5774329 -0.3531395
0002c0 47 ea d1 be 1c 53 a7 3e bc de 7b bd 00 3c 75 be
       -0.40999052 0.32680595 -0.061491713 -0.2394867
0002d0 32 04 1b 3e be 7a 88 3e 15 e5 5d be 44 b3 90 3c
       0.15138319 0.26656145 -0.21669419 0.017663606
0002e0 a3 a0 41 bd 87 91 a1 be 02 18 d5 3e da b0 c5 3e
       -0.047272336 -0.3155634 0.4161988 0.3861149
0002f0 de aa 5a 3d 17 37 4a be 7e 9e 98 be 2d e4 62 be
       0.053385608 -0.19747578 -0.2980842 -0.22157355
000300 21 18 b6 be e1 62 c5 3d 77 bf 0b be d2 08 11 3e
       -0.35565284 0.09638 -0.13647257 0.14163521
000310 b4 43 d5 be 5c 2d db be 16 60 92 3e 81 cf 1e be
       -0.41653216 -0.42808044 0.28588933 -0.15508844
000320 ae 1a c2 bd d0 c5 65 3e 31 fc 4c bd e2 ef e6 be
       -0.09477745 0.2243874 -0.050045196 -0.4510489
000330 e0 04 86 be f6 83 9e be 0a 35 63 3e 6f e4 70 bd
       -0.26175594 -0.30960053 0.22188202 -0.0588116
000340 b9 b7 81 3e 50 78 05 3d af 90 45 3f 23 7a 3b 3e
       0.25335482 0.032585442 0.77173895 0.1830831
000350 58 4e 1c 3e ae bc 02 3d 30 75 14 bd 8b 32 c6 3e
       0.15264261 0.03191822 -0.03624457 0.38710436
000360 a7 88 25 bf d5 d5 91 3e 89 b1 3e 3f 96 3e ea be
       -0.6466164 0.28483453 0.7448965 -0.45750874
000370 c8 1a aa 3a df 97 09 be d4 8e a6 bd fd 7e 66 be
       0.0012977952 -0.1343684 -0.08132711 -0.2250938
000380 15 e2 a5 3e 93 41 94 3e 77 72 5a 3f 46 aa 08 3e
       0.3239905 0.2895628 0.8533091 0.13346204
000390 9f 7e a0 be f1 38 56 bd c9 5b cf be 72 f2 c7 bd
       -0.31346604 -0.052300397 -0.40499714 -0.0976304
0003a0 6d 7a af be 11 95 f9 be 07 b5 31 3f a6 f9 9f bd
       -0.3427309 -0.4874654 0.6941685 -0.078112885
0003b0 f6 18 d2 3e cc 3f c5 3c 7d 49 3a 3e 96 84 19 bf
       0.4103467 0.024078272 0.18192096 -0.59967935
0003c0 48 8e ed 3d 34 4c dc 3c b5 ba c2 3e 71 a7 fc be
       0.115994036 0.026891805 0.3803307 -0.49346498
0003d0 d8 ca 51 3e c2 24 b7 3d bd ef 1f 3e bc 87 84 be
       0.20487535 0.08942558 0.15618797 -0.25884807
0003e0 fa e5 72 bd 71 76 26 be c5 8c 64 bd 58 a6 74 3d
       -0.059301354 -0.1625612 -0.05579831 0.05972895
0003f0 33 5e 33 3e 79 a7 2c 3f 31 db 30 be f1 6c 52 3e
       0.17516403 0.67443043 -0.17271115 0.2054937

l2.bias f4 [27]
000000 79 6f 06 3d b5 18 7c 3e fd 0e 85 be fe 2d a6 ba
       0.032821152 0.246188 -0.25987998 -0.0012678502
000010 10 19 c9 bc 9c 31 2e 3e bd 88 8a be 1f 0c 95 bd
       -0.024548084 0.17011112 -0.27057448 -0.072777025
000020 50 a9 f4 bd 76 c1 91 3e 8f d9 fe bd 2b 4f 52 bd
       -0.11946356 0.2846791 -0.1244384 -0.05134503
000030 cc b8 13 3e 7d 61 18 3d 2a 30 33 3d 86 43 1c 3c
       0.14425963 0.037202347 0.043747105 0.009537583
000040 2d 1a 89 be 7f 0c 6c be 13 c5 1b 3e d6 3d 8d 3d
       -0.26777783 -0.23051642 0.15211897 0.0689656
000050 8f b3 2e bc d2 ce 7b be a4 e9 85 be 4b 41 e9 bd
       -0.010662927 -0.24590614 -0.26154816 -0.11389407
000060 d8 53 99 be 2e 33 fe 3c 86 0d 2e be
       -0.2994678 0.031030264 -0.16997346
