model-data-loader-embedding.pth (torch, 7767 bytes, 4 tensors)

l1.weight f4 [35, 14]
000000 30 0e 89 bd 50 cf e0 bd 08 72 d8 bc b2 86 98 bd
       -0.06692159 -0.10977042 -0.026421562 -0.07447566
000010 68 29 d6 bc 9c 98 1e 3e 27 ee 1e bd 6d 8a 23 3e
       -0.02614279 0.15487903 -0.03880134 0.15970774
000020 af 66 77 be b3 e2 2e 3e 58 62 9f be 5d f9 00 3e
       -0.24160264 0.17078666 -0.31129718 0.12595125
000030 c6 81 51 3e e8 fc cb bb 73 bd d1 bd dc c7 bb bd
       0.20459661 -0.006225217 -0.10241213 -0.091689795
000040 d6 29 45 be bb 46 78 be 3a 00 a2 bd 75 1a 11 3e
       -0.1925424 -0.24245732 -0.079101995 0.14170249
000050 a7 da fb bd a5 19 93 bc 5b 6b 51 3e 3f 77 31 be
       -0.12297564 -0.017956564 0.20451109 -0.17330645
000060 32 a6 5a bd 1c 4b ca 3d 5b c9 b2 3c b2 37 10 be
       -0.053381152 0.09877607 0.02182453 -0.14083746
000070 f3 d7 ab 3d 4e 94 3c bd 0c 8c c4 bd 36 13 0a bd
       0.083907984 -0.046039872 -0.09597024 -0.033709727
000080 a0 67 0a be d6 8f 69 bd cc 11 78 be d0 44 b1 3d
       -0.13516092 -0.05702194 -0.24225539 0.08655703
000090 94 10 35 3e a8 20 6e 3d 8c 18 de bd e1 f0 8a 3d
       0.17682105 0.058136612 -0.10844526 0.06784225
0000a0 c3 56 fa be 4e 4f f0 bd 4e b8 fd bd 44 b1 25 3e
       -0.4889432 -0.11733876 -0.12388669 0.16180903
0000b0 6e ce 76 be 80 a9 02 3d 10 63 3a 3d cd e7 9b 3d
       -0.24102184 0.03189993 0.04550463 0.07612572
0000c0 85 ac 4d 3e 20 01 3b bd 7b 39 36 be 05 87 04 3d
       0.20085342 -0.04565537 -0.17795365 0.032355327
0000d0 31 03 af bd 8e f3 fc be 23 90 65 3e 09 5e 0e 3e
       -0.085455306 -0.49404567 0.22418265 0.13903059
0000e0 11 11 81 3e 09 6c 71 be b6 b2 2b 3e 9b 6f 9b 3d
       0.25208333 -0.23576368 0.16767392 0.075896464
0000f0 50 0d 02 3e 97 86 fe 3d 3a c6 d8 bd 9c 7a 1f 3c
       0.12700391 0.12428015 -0.10584684 0.009733822
000100 c8 0a 02 be 7a 64 10 be 5a ab d5 be bf bf 82 be
       -0.12699425 -0.14100829 -0.41732293 -0.25536916
000110 60 af 8d 3e 3a c0 07 be 42 f1 01 be d3 e9 42 3d
       0.27672863 -0.13256922 -0.12689689 0.047586273
000120 84 f9 80 be b7 c1 56 bd d7 55 cc bd 9c ba 09 be
       -0.25190365 -0.052430835 -0.0997731 -0.13450092
000130 5a ad 0f bd 4c 10 c2 3d 2d c6 c3 bd b5 75 ba 3e
       -0.03507743 0.09475765 -0.095592834 0.36417928
000140 16 ff 9e bd 5f 4e 26 3d 29 90 63 3e 54 75 b4 3e
       -0.077634975 0.040602084 0.22222961 0.35245764
000150 2b e1 87 3b 70 67 10 be 49 c0 1e bd 8d e8 7a be
       0.004146715 -0.14101958 -0.038757596 -0.24502774
000160 a3 b2 d8 bc a0 ca 1e 3e ac 2b bb 3d 78 49 1f bd
       -0.026452368 0.15506983 0.09139189 -0.038888425
000170 02 2b 40 bd 23 ce 5f 3e 91 ed a1 3e 22 70 05 bc
       -0.046916015 0.21855979 0.3162656 -0.00814441
000180 e2 61 96 be 10 6f 64 bd db 30 83 3c 3b b5 a1 3d
       -0.29371554 -0.05576998 0.016014507 0.07895895
000190 c9 54 81 bd 9e bc 79 bd 0d d6 4a 3d 4d 02 0a 3e
       -0.063149996 -0.060970895 0.04952054 0.1347744
0001a0 a7 f9 0f 3e e8 45 13 3e 45 39 4e bd a8 63 82 be
       0.14060079 0.14382136 -0.050347585 -0.25466657
0001b0 d6 0c d0 3d 95 dd 01 3d 5f 7f b4 3e 82 80 6d bd
       0.10158698 0.031705458 0.35253426 -0.057983883
0001c0 c2 f5 ad 3c 02 af 1a 3d 95 ed a7 be a8 66 3c ba
       0.02123535 0.037764557 -0.32798448 -0.0007186928
0001d0 8b a6 9e bd f5 2c ca 3d 69 96 94 3b 0a 00 2a 3e
       -0.07746609 0.09871856 0.004534532 0.16601577
0001e0 d6 ee af 3d 4f 08 d5 3d 8a 07 ad bd bd c2 82 3e
       0.08590476 0.10401975 -0.084487036 0.255392
0001f0 c8 19 77 bd 05 d3 1b bc 4a 1e 6f 3e 3c b1 39 bd
       -0.06032732 -0.00951076 0.23351398 -0.04533504
000200 04 e4 04 3e 3f 2c 4c 3e 2d 46 ef bd 34 e8 8d be
       0.12977606 0.19938754 -0.11683307 -0.2771622
000210 fd d6 49 be c0 63 10 be e7 35 28 3c c1 77 01 3f
       -0.19710918 -0.14100552 0.010266758 0.50573355
000220 2a 5c 1c be 3f 13 31 3e e0 6a 06 3e 92 d9 00 bd
       -0.15269533 0.17292498 0.13126707 -0.03145749
000230 20 dd fe bd 09 74 30 bd 23 30 3b be d1 59 05 3e
       -0.1244452 -0.04307941 -0.18280081 0.13022543
000240 8b 7b 94 3d 73 03 f4 3d 33 a0 6f bc fb 7e ea 3c
       0.072501265 0.119147204 -0.014625597 0.028625002
000250 ca 1c 8a 3e 80 b1 96 be 0b 7c 33 3e ef 54 46 3e
       0.2697509 -0.29432297 0.17527787 0.19368337
000260 f5 75 af bd 49 12 3a 3e 4a b0 aa 3d 28 e9 50 bc
       -0.085674204 0.18171038 0.08334406 -0.012750901
000270 44 62 75 3e ee 0f 01 be 75 77 37 3e 15 53 0d 3e
       0.23963267 -0.12603733 0.17916663 0.13801225
000280 af c2 bf bd 42 03 1a be 96 86 22 3d c0 07 24 be
       -0.09363305 -0.15040305 0.039679132 -0.16018581
000290 92 6a ca 3d d5 05 80 bd ff cd 7e 3e cb c4 4d bd
       0.09883608 -0.06251112 0.24883269 -0.050236505
0002a0 21 24 4d 3e 47 05 ad 3d 23 76 22 be 6f ec 8f 3e
       0.20033313 0.08448272 -0.15865378 0.28110072
0002b0 c7 18 ea 3d c0 78 0c 3d 84 16 bf 3e fa d8 80 3e
       0.11430507 0.034294844 0.37321866 0.2516554
0002c0 9a b2 aa bd 51 fd 6d 3e 9a ca 0a 3e aa dc 93 bc
       -0.08334847 0.23241164 0.13553849 -0.018049557
0002d0 80 ed fa bd 58 5c d5 bd 84 db f8 3c 48 2a e2 bb
       -0.12252331 -0.10418004 0.03037811 -0.006902013
0002e0 f7 2f ad 3e 9e 47 3a 3e 48 4f d3 3d 82 30 d8 be
       0.33825657 0.18191382 0.10317856 -0.4222451
0002f0 76 ee 83 bd c3 ac e5 bd cc 86 1c 3e 14 60 c5 be
       -0.06441967 -0.11214592 0.15285796 -0.38549864
000300 dc 78 a8 3e 03 87 aa be 2b aa 25 be 83 23 2e be
       0.32904708 -0.3330613 -0.16178195 -0.17005734
000310 73 bd 35 ba 14 ab 58 3d 38 30 b1 bd 7b 77 d1 bd
       -0.0006932832 0.052897528 -0.08651775 -0.10227867
000320 ee 03 2d 3d a8 b5 04 bc c4 a7 c0 bc 62 01 e6 bc
       0.042240076 -0.008099951 -0.023517497 -0.028076831
000330 a0 d8 a3 3e bd bb 62 be 19 15 cc 3e d6 a0 bd bc
       0.3200121 -0.22141929 0.39859846 -0.023147982
000340 2b 20 85 be 61 9e f5 bc 45 58 4b 3c d4 06 9b 3d
       -0.26001105 -0.029982748 0.012411182 0.07569662
000350 47 c6 56 be 0c 46 36 3e f2 c9 72 be 3f 0b 54 3d
       -0.20974074 0.17800158 -0.23709849 0.051768538
000360 57 fa 53 bd 78 b2 9c 3d 87 02 36 be e6 c1 55 bd
       -0.051752415 0.07651228 -0.17774402 -0.05218687
000370 ae cc 31 be e8 e3 71 be b5 09 8d 3e 3a 37 c9 3d
       -0.17363235 -0.23622096 0.27546468 0.09824987
000380 8c 7f 61 bd 3e e3 4f 3d f4 45 49 bd bc 87 54 3e
       -0.05505328 0.050753824 -0.049138978 0.20754904
000390 0d ac 3d 3c 56 1c 0d be 5d 13 9c bc 9a 35 19 3e
       0.011576665 -0.1378034 -0.019052202 0.14961854
0003a0 dd e2 24 be ed 14 81 3e 13 1c 89 be 65 32 06 be
       -0.16102166 0.25211278 -0.2677923 -0.13105161
0003b0 53 6c af bd a7 cb 8e bd b3 9a 06 3e ff dd 18 be
       -0.08565583 -0.06972437 0.1314495 -0.14928435
0003c0 e9 61 e4 3c e7 ff 03 be 0a e9 0d 3e 91 78 53 be
       0.027878718 -0.12890588 0.13858429 -0.20651461
0003d0 0b ae 87 be 9b 1f 55 3d a9 41 be bd d6 1b 44 be
       -0.26499972 0.052032094 -0.092898674 -0.19151244
0003e0 bf 84 07 3f a4 36 07 be 63 75 0b 3e c6 96 0c 3e
       0.5293693 -0.13204437 0.13618998 0.1372939
0003f0 c7 99 05 be bb 6e f3 bd 2f e7 b6 3d f9 ae 73 bd
       -0.13046943 -0.118863545 0.089308135 -0.05949304

l1.bias f4 [35]
000000 7f d3 9c bc f2 aa 18 3f 81 55 ae 3e b6 f8 1f 3f
       -0.019143818 0.5963584 0.3404961 0.6248888
000010 ad f1 fd be 17 e5 fe be 60 96 b8 be be d9 f9 3e
       -0.49598446 -0.49784157 -0.36052227 0.48798937
000020 6e 01 2e be c4 de d3 bd 1c 79 53 3e 3b 2a 0d 3f
       -0.16992733 -0.103452235 0.20651668 0.55142564
000030 b8 b5 40 be 4b 1d e4 3d 3f 3e 1f 3f 75 0a c2 3e
       -0.1881932 0.111384 0.62204355 0.37898603
000040 4b 60 c7 3d d9 4a 0f 3f 94 eb 5d 3d fc 94 97 be
       0.09735163 0.55973583 0.054179743 -0.29605854
000050 be 42 ad 3e e9 5b e2 3e c9 10 94 3d 8d ba 1f 3e
       0.33839983 0.44210747 0.07229764 0.15598507
000060 ba 27 ba 3d 9a 07 91 be 02 1d dd be 4e a7 0b 3f
       0.090896085 -0.28326112 -0.43186194 0.5455216
000070 25 0f d3 3e 79 a0 0c bf d0 37 91 3e ce 23 2a 3e
       0.41222492 -0.5493236 0.28362894 0.16615221
000080 c9 d8 e3 be f8 62 b0 3d 34 e9 a3 3e
       -0.4450133 0.08612627 0.32013857

l2.weight f4 [27, 35]
000000 30 b5 e8 3d 8b ff 3f 3e 2a fd 5e bd 2b ab a6 3e
       0.11362684 0.18749826 -0.054440655 0.32552466
000010 e1 04 60 be 24 de 6c 3d 7d c9 7f bc aa be 28 3e
       -0.21876861 0.057829037 -0.015612003 0.16478983
000020 98 a0 0f bc 79 13 30 be a1 b1 05 3e a3 30 e1 3d
       -0.008766316 -0.17194928 0.13056041 0.10995605
000030 c6 4b 4d bd ee af 75 be 6c 72 ed 3d f7 40 80 3d
       -0.05012109 -0.23992893 0.1159409 0.06262391
000040 cc c5 c4 3c 28 17 14 3e 86 17 10 3e 67 f8 bf bd
       0.024020098 0.14461958 0.14071473 -0.09373551
000050 41 5f 64 3e 4f 66 06 3e f4 02 37 be 15 4a ab bd
       0.22301961 0.13124965 -0.1787222 -0.083637394
000060 09 48 f6 bd 68 5c 09 3e 0d 51 3f be 19 dd 41 3e
       -0.12025458 0.13414156 -0.18683262 0.18931998
000070 d2 0a af 3d 54 5b 05 be df c3 9f 3d 14 6c 46 3e
       0.08546986 -0.1302312 0.07801031 0.19377166
000080 ec b6 bb 3d d7 56 f1 3c a1 e4 73 3d ee 7c 28 3d
       0.09165749 0.029460354 0.05954421 0.041134767
000090 62 26 0e 3e f7 30 1e 3e a2 33 94 3e a2 7f 8a bc
       0.1388183 0.15448366 0.28945643 -0.016906563
0000a0 d0 04 7d be 65 e2 06 bd 8a f8 4d 3e 90 4c 3a be
       -0.24708867 -0.03293075 0.20114341 -0.18193269
0000b0 b0 ab 11 3c 2e 46 3d bd be 2b 86 3e d4 7b 37 3c
       0.008891031 -0.046209507 0.26205248 0.0111989565
0000c0 c3 8a ff 3d c0 e7 57 3e cd 2e b0 3d 84 ae 12 3d
       0.124776386 0.210845 0.086026765 0.035810962
0000d0 af d9 b9 3e f9 be d4 3d 66 89 05 3d 57 0f 0c 3e
       0.36298892 0.10387988 0.032601736 0.13677727
0000e0 c2 3c 91 3e e2 4e 31 3e 7e 28 52 bd f8 43 52 bc
       0.28366667 0.17315248 -0.051308148 -0.012833588
0000f0 0d 11 92 be dd 8d 2a be ea aa e9 3d 2d 6d cf 3c
       -0.28528634 -0.16655679 0.114095524 0.025320614
000100 b4 3e 6e be 03 99 0e 3e 32 c5 aa 3d 44 6b bc bd
       -0.23266107 0.13925557 0.08338393 -0.09200147
000110 90 61 89 bd 40 4e 84 3c 0a a3 b9 bc 66 78 07 be
       -0.06708062 0.016150594 -0.02266075 -0.13229522
000120 33 35 ef 3d dc ec 7e bd b6 7e 4e bc e2 e6 d8 bd
       0.11680069 -0.062237605 -0.012603452 -0.105909124
000130 30 21 5c 3e d1 51 85 be 10 5e 9b bb dc cd a3 3d
       0.21497035 -0.26038983 -0.0047414377 0.07998249
000140 c0 fc 2a be 73 db 6f be 7c 02 91 3e 64 04 a0 3d
       -0.16697979 -0.23423557 0.28322208 0.078133374
000150 47 9f 5c bd 09 d6 50 be 1e 29 97 3e 72 7c 75 3d
       -0.053862836 -0.20394148 0.29523557 0.059933133
000160 60 b0 fc bd 0e 3d 72 3e 38 2b b8 3b 5e ca 55 bd
       -0.12338328 0.23656103 0.0056203865 -0.052194946
000170 e9 26 9f bd 36 ca 2c 3e 71 a5 a6 be 1f f5 b2 3d
       -0.077710934 0.16874012 -0.32548097 0.087381594
000180 16 66 0a 3c 8d 43 2a be f7 97 d4 bd 4d 92 ad 3d
       0.008447191 -0.16627331 -0.103805475 0.0847517
000190 0e c5 c7 be f4 46 7c be 99 4a 3a 3d 9b 3d f5 bd
       -0.39017528 -0.24636441 0.045481298 -0.11974641
0001a0 54 42 91 bd f2 31 2d 3e ba d5 13 bd 31 27 db 3d
       -0.07092729 0.16913584 -0.036092497 0.107008345
0001b0 44 d4 0a 3c d8 6a 8e 3c 54 83 bf bc 1a 59 36 3e
       0.00847346 0.017384931 -0.023378052 0.17807427
0001c0 6c 6d 79 bb 15 38 8e bd 4c 16 9b 3d 49 11 80 be
       -0.0038059605 -0.069442905 0.07572612 -0.25013188
0001d0 e5 8b 09 be 05 58 01 3e 82 03 4c be 82 d0 c3 be
       -0.13432272 0.12631233 -0.19923213 -0.38245016
0001e0 9d 01 a7 3d 83 cc b2 3d 0b 69 2e bd 0a 2d ae 3d
       0.081546046 0.08730414 -0.042580646 0.08504684
0001f0 ea 57 04 3e 97 fc ad 3c 00 52 0b be ba 3c 29 be
       0.12924162 0.021238608 -0.136055 -0.16527072
000200 a5 36 b3 3d c3 71 74 be 8e ad 11 bd bd 80 fb 3d
       0.08750657 -0.23871522 -0.035565905 0.12280414
000210 36 bc 4c be a0 3f e3 bc 92 80 2b 3e 37 01 82 bd
       -0.19993672 -0.0277403 0.16748264 -0.06347888
000220 f6 f4 a6 bb 76 22 99 3c 62 c8 2d 3e 23 88 7d 3d
       -0.0050951196 0.01869319 0.16970971 0.06189741
000230 e7 52 31 3e c7 ee 94 be a8 7d e9 bd 0a 5e 12 bd
       0.17316781 -0.29088423 -0.1140092 -0.035734214
000240 ce 7d 8d 3e 0c 4b a8 3c 0a 65 f3 bd 35 e9 cc 3c
       0.27635044 0.020543598 -0.11884506 0.025013546
000250 ab 30 cc bd 98 a7 4f bd 7d 2b f6 bd 79 01 0e be
       -0.0997022 -0.05069694 -0.120200135 -0.1386775
000260 58 c5 86 3c c6 85 63 3d dd 5c e8 bd de 81 f7 bd
       0.016451523 0.0555475 -0.11345837 -0.12085317
000270 f3 cb 76 3e 1c 37 8c 3e 41 ad 19 3e 75 90 d2 bd
       0.24101238 0.27385795 0.15007497 -0.10281459
000280 0a 90 3d be 91 af 10 3e 88 af 13 3d 69 c6 d9 3c
       -0.18511978 0.14129473 0.03605607 0.026583867
000290 7b 99 ee bd ac 9c c3 3d 5c a4 72 3d da 02 b6 3c
       -0.11650368 0.09551367 0.059238777 0.022218157
0002a0 43 ed 05 3d 59 b6 06 be 43 77 d0 bb e9 1d bc bd
       0.032696974 -0.13155498 -0.0063618734 -0.091853924
0002b0 08 36 aa 3e f8 a9 d4 3d d4 dc 6e bc 7a a1 06 3d
       0.33244348 0.103839815 -0.014579017 0.03286884
0002c0 58 d7 62 3e 04 3c 7e 3d c3 c3 a4 3d 43 55 a5 bd
       0.2215246 0.062068954 0.08045151 -0.08072903
0002d0 c9 03 43 be 04 4f 06 be 01 4d 9e 3e 43 ec 28 bd
       -0.19044413 -0.1311608 0.30918124 -0.04124094
0002e0 4a fc d7 bc 24 88 3a 3d d3 11 bf 3d f0 d6 5f bd
       -0.026365418 0.04553999 0.093295716 -0.05464834
0002f0 65 10 d2 3c 4a 37 70 3e 4a c4 0d 3e 94 05 84 3c
       0.025642583 0.23458591 0.1384441 0.016115941
000300 8e 5c 31 3e 20 c1 66 bc 4d 02 29 be a5 30 43 3e
       0.17320463 -0.0140841305 -0.16504784 0.19061525
000310 d0 84 5a 3e 33 2f 07 3e a4 f8 12 3d b1 df 38 3d
       0.21339726 0.13201599 0.035881653 0.045135204
000320 7a 6d 0d bd be 8c ea bc 04 b3 e9 3d 6f 74 e4 3d
       -0.034528233 -0.028631564 0.11411098 0.111550204
000330 cd 73 5a bd ad 9a 26 3e 4f e8 5a 3c 28 43 b7 be
       -0.053333092 0.16269942 0.013361051 -0.35793424
000340 70 3c 41 3d cc a2 70 3d ee 5d 2c be d2 e8 e9 bd
       0.04717678 0.058749005 -0.16832706 -0.1142136
000350 80 1a c7 bd 86 56 a4 be e8 72 a9 3d 9d 32 c3 3e
       -0.09721851 -0.32097262 0.0827387 0.38124552
000360 d7 74 8b 3e 9a ea 50 be bb 2c c6 3d 40 03 07 bd
       0.2723758 -0.20401993 0.096765004 -0.032962084
000370 4d 96 77 bd 22 6d a9 be f4 44 08 be 16 08 1b 3e
       -0.060446072 -0.33091074 -0.13307554 0.15139803
000380 2e 2f 97 3d a7 8d 38 be 7a 3e 61 be 64 8b 68 be
       0.07382046 -0.18022786 -0.21996489 -0.22709423
000390 a6 e7 0a be 62 90 b1 3e cc 83 39 3d 1c 0e 95 be
       -0.1356493 0.34680468 0.045291707 -0.29112327
0003a0 2e 33 b6 bd 6f ec 90 bd 0a e8 a2 be d9 95 9e 3d
       -0.088964805 -0.07076346 -0.31817657 0.07743425
0003b0 d1 2d 2e 3e d0 f5 32 be 06 57 b9 be 62 38 43 3e
       0.17009665 -0.17476583 -0.36199206 0.19064477
0003c0 6a c3 b0 be 03 d9 12 be 7b e0 18 bd 93 66 dd bd
       -0.3452409 -0.14340596 -0.037323456 -0.1081058
0003d0 b6 3f f8 be 02 87 52 3e 7a e7 99 3c 72 2b a5 be
       -0.48486108 0.20559314 0.018787134 -0.3225971
0003e0 a1 8a 2e be 6e ce d2 3e 6a cd cd 3d 91 02 25 be
       -0.1704507 0.41173118 0.10048945 -0.1611426
0003f0 81 12 14 3e 35 4d 06 bd 41 0f da be 06 00 93 3d
       0.14460184 -0.032788474 -0.42589763 0.07177739

l2.bias f4 [27]
000000 06 d8 bb 3e 17 f8 30 3e 0a b1 8b be a0 5f 86 be
       0.3668825 0.17282139 -0.27283508 -0.2624483
000010 15 b0 97 be c3 63 3d 3e f2 b3 03 be bf 48 d8 be
       -0.29626527 0.18495087 -0.12861612 -0.42243
000020 82 8b 0d bd af 6e ee 3d 2a e6 5b be 02 4d 7f bc
       -0.034556873 0.11642205 -0.2147452 -0.015582325
000030 21 0f 3b 3e c1 c9 74 bd 02 e3 21 3e 3e c0 24 3c
       0.1826749 -0.05976272 0.15809253 0.0100556
000040 03 c8 78 be 88 e8 60 be f1 f9 4c 3e bb a4 68 bc
       -0.24295048 -0.21963704 0.2001722 -0.014199431
000050 91 68 11 be e7 d6 7c be 1a 81 72 be a6 fd bc be
       -0.14200045 -0.24691354 -0.23682061 -0.36912268
000060 55 8d a6 be 79 8b 12 3e d0 41 00 be
       -0.32529703 0.14311017 -0.12525105
