NO-ATTENTION.ckpt (torch, 103351 bytes, 27 tensors)

exp_avg f4 [27, 10]
0.0033432443 0.007956251 0.0036799416 0.0062355567 0.0011489792 -0.004193021 0.011585119 0.0059394403
0.013014618 0.0012264806 -0.001015022 -0.0030131536 0.0018661522 -0.00632291 -0.005744974 -0.0069409376
0.0005174598 0.0011790968 0.001686924 -0.001903451 -0.0018257367 -0.0013591168 -0.0007216238 0.0017349283
0.0016341887 0.0007372313 0.00093506905 -0.0031864278 -0.0015128141 0.00029965283 8.092558e-05 -0.0007644152
0.00027654757 -0.00039155778 -0.0006641713 -0.00016407594 0.0008947738 0.00054496987 0.000887623 -5.6211426e-05
0.0035038395 0.00055900816 0.0011916789 -0.003959302 0.002785653 -0.0004731408 0.00095961435 0.0019970378
0.0031492698 -0.0028939522 -0.004920392 -0.003679527 -0.0025664093 -0.007736317 -0.008421586 -0.006608483
-0.0030275395 0.00985696 -0.0052234097 0.0011327806 0.0014117331 -0.0011687264 0.0009734708 -0.0006527731
-0.00040043777 -0.00036581382 -7.878129e-05 -0.0023645484 0.0022596705 0.00011338938 -0.0021738973 -0.0003824344
0.00044285567 0.00022826536 -0.0022788048 -0.0008311336 -0.0028552455 0.0023326168 -0.00847571 0.001933377
3.197242e-05 -0.00028060557 0.0007374291 -0.0013199444 -0.0033797873 -0.0024301698 2.9349467e-05 0.0017867658
-0.00010686205 0.00064519007 -0.0032320083 -0.0021002172 0.0012072127 -0.00029460242 -0.0010601889 0.00029023248
-0.0050866837 0.001407817 -0.008244794 -0.0012043548 0.00070040044 -0.0022413575 -0.0013035918 0.0011195772
0.0060378504 0.0031663058 -0.0014921334 -0.0017436394 0.0017336132 -0.0040458334 0.00048725095 -0.0016093187
-0.00038848235 0.0037744325 0.004555678 0.0024825947 0.0019955384 -0.002528879 0.001722831 -0.0005996799
-0.0008173186 0.002751233 -6.551894e-05 -0.0019135077 0.0018040809 0.0021630444 -0.0032505954 0.0010891517
-0.0029646717 0.0050163893 -0.00041743752 -0.0014664445 0.0028929566 -0.00011194404 0.0014735626 0.0022266197
0.002777625 -0.004658101 0.003776138 0.0028762051 -0.00011590963 0.00067910104 -0.00076327653 -0.00021138975
-0.00022852056 3.423115e-05 -0.0009813039 -0.00078036747 0.0004217779 -2.2389504e-05 0.00046827242 0.0017442885
-0.0011536459 -0.0008824362 -4.9239257e-05 -0.0024293237 0.0035597975 0.0020821248 -0.00088010164 0.002053556
-0.0009242704 0.0015076282 -0.00048836216 -0.0012472554 -1.6471487e-05 0.00288548 -0.0016965946 -0.0036297406
0.0008874179 -0.0019474839 0.00061076094 -0.001188729 0.0007762348 0.0029655455 0.0005159704 0.0017101681
0.0019091766 -0.0009643906 0.0048422585 0.0010072559 -0.0012238027 -0.00020574099 -0.0007048808 -0.00083056564
0.0019102597 0.0069976877 -0.0036655539 -0.00383697 -0.010682257 0.0028557745 9.3442846e-05 -0.0005240683
0.0003639983 -0.0003951482 0.00046991662 0.00076774345 2.629213e-06 -0.0004079058 0.0003556224 0.00024717356
0.00096727005 0.00047225872 0.0007871292 0.0005385296 -0.0014084419 0.0017071137 -0.0006252298 -0.0007278359
0.0028914795 -0.0007587039 0.001435642 -0.0017251901 0.00018269147 -0.0009549664 0.00040600533 -0.00011012045
0.0016965372 0.0019236915 -4.4643355e-05 -0.0003737246 0.0002937012 -0.0006790583 0.00086362945 0.00041301333
9.323539e-05 0.0011501922 -0.0016190294 -0.0003961239 -0.00031673122 0.00023117551 0.00088261423 0.0019350697
-0.0026840528 -0.0011136557 -0.00090077834 -0.0027082914 0.0017043161 0.0016049077 -0.0020298145 0.00010680065
-0.0034876047 0.001417138 0.0001171566 0.0016238275 -0.0009920364 0.0030484002 -0.0029129912 -0.0041541434
-0.0010054961 -0.0019387405 0.0016962133 0.0006717061 0.0020598588 0.0010089454 0.0032666049 -0.0029829843
00000000: 551a 5b3b ef5a 023c 2d2b 713b a453 cc3b
00000010: 5899 963a 9c65 89bb 83cf 3d3c a39f c23b
00000020: 443b 553c dcc1 a03a 7d0a 85ba 5478 45bb
00000030: ad99 f43a 6a30 cfbb 5640 bcbb ce70 e3bb
00000040: 24a6 073a ec8b 9a3a c71b dd3a 387d f9ba
00000050: 8f4d efba 6424 b2ba 5a2b 3dba 8966 e33a
00000060: 4632 d63a c142 413a 6c1f 753a 63d3 50bb
00000070: 9e49 c6ba b91a 9d39 97b6 a938 0963 48ba
00000080: 96fd 9039 ff49 cdb9 c81b 2eba cd0b 2cb9
00000090: 418f 6a3a 4fdc 0e3a 5faf 683a 8fc4 6bb8
000000a0: aca0 653b 678a 123a 1c32 9c3a 08bd 81bb
000000b0: 818f 363b e20f f8b9 a18e 7b3a bce0 023b
000000c0: fb63 4e3b 76a8 3dbb 3d3b a1bb 3824 71bb
000000d0: 3431 28bb ee80 fdbb b1fa 09bc f98b d8bb
000000e0: af69 46bb 167f 213c 2329 abbb cf79 943a
000000f0: e709 b93a f32f 99ba 8530 7f3a dc1e 2bba
00000100: d9f1 d1b9 b3ca bfb9 6237 a5b8 8af6 1abb
00000110: fb16 143b 76cb ed38 f277 0ebb 7a81 c8b9
00000120: 152f e839 845a 6f39 0058 15bb 6fe0 59ba
00000130: 121f 3bbb d1de 183b b4dd 0abc 5e69 fd3a
00000140: 201a 0638 3e1e 93b9 0750 413a fc01 adba
00000150: 6c7f 5dbb 7c43 1fbb 8033 f637 e931 ea3a
00000160: 201b e0b8 f921 293a 1ad0 53bb cca3 09bb
00000170: 563b 9e3a de74 9ab9 09f6 8aba 582a 9839
00000180: 32ae a6bb 8086 b83a 2c15 07bc 71db 9dba
00000190: 149b 373a bde3 12bb 48dd aaba c7be 923a
000001a0: 29d9 c53b cc81 4f3b b093 c3ba d48a e4ba
000001b0: 683a e33a e992 84bb b775 ff39 c6ef d2ba
000001c0: 38ad cbb9 785c 773b cc47 953b 07b3 223b
000001d0: 94c7 023b 8dbb 25bb 9ed0 e13a d633 1dba
000001e0: 5341 56ba 084e 343b 3767 89b8 aace faba
000001f0: e976 ec3a ddc1 0d3b f107 55bb dec1 8e3a
00000200: f04a 42bb 8660 a43b 84db dab9 b635 c0ba
00000210: c297 3d3b 80c3 eab8 8e24 c13a 7bec 113b
00000220: d108 363b fca2 98bb 1579 773b b77e 3c3b
00000230: 8214 f3b8 b305 323a 9f16 48ba 81a8 5db9
00000240: 059f 6fb9 6b93 0f38 189f 80ba 9391 4cba
00000250: 1222 dd39 18d1 bbb7 7682 f539 9ca0 e43a
00000260: ef35 97ba 4a53 67ba 4086 4eb8 4a35 1fbb
00000270: 7e4b 693b 4274 083b 9fb6 66ba f494 063b
00000280: bd4a 72ba 9c9b c53a 6e05 00ba f27a a3ba
00000290: 402c 8ab7 521a 3d3b 4560 deba f1e0 6dbb
000002a0: 9ba1 683a b742 ffba 791b 203a 20cf 9bba
000002b0: 3c7c 4b3a 9959 423b 3042 073a b827 e03a
000002c0: 563d fa3a 28cf 7cba cfab 9e3b e605 843a
000002d0: 0168 a0ba 2dbc 57b9 c0c7 38ba 51ba 59ba
000002e0: ae61 fa3a dc4c e53b ca39 70bb ad75 7bbb
000002f0: a204 2fbc f227 3b3b bff6 c338 a161 09ba
00000300: 06d7 be39 e52b cfb9 245f f639 6442 493a
00000310: 8971 3036 31dc d5b9 d572 ba39 1397 8139
00000320: 6590 7d3a 7e99 f739 5957 4e3a 1c2c 0d3a
00000330: 789b b8ba 3bc1 df3a 76e6 23ba 3ecc 3eba
00000340: fa7e 3d3b c2e3 46ba 272c bc3a c61f e2ba
00000350: de90 3f39 b656 7aba 1ddd d439 77f0 e6b8
00000360: 585e de3a 6024 fc3a 703f 3bb8 77f0 c3b9
00000370: e8fb 9939 d502 32ba 3165 623a b689 d839
00000380: 5e87 c338 0cc2 963a 9d35 d4ba daae cfb9
00000390: f20e a6b9 b467 7239 3d5f 673a 2aa2 fd3a
000003a0: efe6 2fbb 16f8 91ba 3622 6cba 977d 31bb
000003b0: 5c63 df3a c45b d23a a306 05bb 2afa df38
000003c0: 4c90 64bb 43bf b93a f8b1 f538 9cd6 d43a
000003d0: 3807 82ba abc7 473b e2e7 3ebb 7b1f 88bb
000003e0: daca 83ba 561d feba 7953 de3a 6f15 303a
000003f0: b2fe 063b 973e 843a 8914 563b 2c7e 43bb

exp_avg_sq f4 [27, 10]
0.00072987226 0.0007643983 0.00080176507 0.0008705712 0.0009691475 0.0009788742 0.0009940346 0.0011213166
0.0014439971 0.0003418313 0.0002761242 0.0001508864 0.00018943146 0.00019056647 0.00033811576 0.00021826847
0.00046384847 0.00023096245 0.0006897845 0.00012496047 0.00012969256 5.714288e-05 6.17951e-05 7.611523e-05
0.00013849745 8.133557e-05 0.000113149785 8.3911655e-05 0.00016835198 5.8576286e-05 6.600526e-06 4.5896636e-06
6.3892057e-06 5.564289e-06 7.413077e-06 9.25702e-06 8.299099e-06 5.610036e-06 1.0686451e-05 2.9489447e-06
6.8512614e-05 4.311883e-05 4.8683265e-05 3.42092e-05 5.6094912e-05 5.185027e-05 8.5970794e-05 6.114532e-05
0.00010602609 2.377025e-05 0.00042186448 0.00021117077 0.00025148064 0.0002661806 0.0004756503 0.00040932247
0.00058803294 0.00034613747 0.0011284314 0.00021366615 2.6619964e-05 1.8814097e-05 1.8977986e-05 1.9325582e-05
2.7766073e-05 2.2282838e-05 3.6260975e-05 2.6733007e-05 5.0528226e-05 1.2373208e-05 7.1294715e-05 4.7445945e-05
5.9609563e-05 6.618758e-05 8.875551e-05 9.585236e-05 0.00012846585 9.4316936e-05 0.0001963999 4.9390357e-05
2.5840993e-05 1.6542142e-05 1.5875481e-05 1.8349847e-05 2.850514e-05 1.5985472e-05 2.5751136e-05 2.8191356e-05
5.1713105e-05 1.1567923e-05 4.387849e-05 4.019346e-05 3.6632264e-05 3.2312022e-05 3.7973674e-05 4.88779e-05
4.329276e-05 3.2008837e-05 6.451747e-05 1.4273735e-05 0.000263862 0.00011282397 0.00015658446 0.0001478934
0.00020053878 0.00016717897 0.00040765063 0.00016336302 0.00042325832 7.3630086e-05 0.00017369457 8.960576e-05
0.00012762504 0.00011909428 0.00015535363 0.00017277159 0.00025802417 0.0001345708 0.0003390503 6.578512e-05
8.960385e-05 5.7829664e-05 6.0347997e-05 6.000064e-05 8.217649e-05 0.00011574633 0.00013781415 8.559494e-05
0.00012979891 3.6008347e-05 0.00033835933 0.00017514474 0.00016799584 0.00018600051 0.0002067069 0.0002639681
0.00042334167 0.00023377579 0.0006497853 0.0001339043 1.4947599e-05 9.760708e-06 6.390657e-06 6.6543425e-06
1.0282268e-05 1.4610807e-05 1.28656975e-05 9.367432e-06 2.1256104e-05 4.8239153e-06 4.936878e-05 3.2911215e-05
3.775643e-05 3.2071555e-05 5.0531715e-05 6.399193e-05 7.451571e-05 5.0879593e-05 9.042411e-05 3.0133693e-05
0.00016506798 0.00010514155 0.00010643832 0.00011965067 0.00014955433 0.00014667606 0.00025973676 0.00014167253
0.00028579423 9.344299e-05 8.979586e-05 5.867093e-05 7.7115496e-05 6.537233e-05 8.955309e-05 0.00012737945
0.00012397836 9.14374e-05 0.0001857434 3.1744006e-05 0.00011110621 7.909266e-05 6.5884524e-05 6.523438e-05
8.470307e-05 6.255884e-05 8.7685745e-05 8.671039e-05 0.00019225311 3.3916036e-05 1.1957329e-06 9.549616e-07
8.220985e-07 1.329699e-06 1.9008984e-06 1.2499524e-06 1.7156851e-06 1.6445642e-06 2.1971152e-06 1.031738e-06
2.9193725e-05 2.401158e-05 2.361037e-05 2.9287163e-05 3.095392e-05 5.4000368e-05 6.006624e-05 3.772839e-05
8.885342e-05 2.3164957e-05 1.4500998e-05 8.965989e-06 1.3035355e-05 8.693545e-06 1.3325032e-05 1.678781e-05
1.2270613e-05 1.2837056e-05 2.7027807e-05 6.0932507e-06 1.5203548e-05 6.964295e-06 5.7405064e-06 9.462947e-06
1.305351e-05 1.11239315e-05 2.4899946e-05 1.0834358e-05 2.6701196e-05 8.8355055e-06 4.3325716e-05 2.3084765e-05
2.4833183e-05 2.3946714e-05 2.4317822e-05 4.0834082e-05 6.6860186e-05 3.039811e-05 6.0789713e-05 1.23494765e-05
6.881573e-05 2.7101456e-05 1.9718931e-05 2.2042088e-05 2.9674384e-05 5.7059697e-05 8.2801685e-05 4.682053e-05
7.4670796e-05 1.3756207e-05 5.5433167e-05 3.989333e-05 4.7129757e-05 3.6809077e-05 5.8289123e-05 4.3089178e-05
00000000: e654 3f3a e761 483a 8b2d 523a 0b37 643a
00000010: 630e 7e3a 914d 803a 444a 823a 24f9 923a
00000020: 8144 bd3a d237 b339 c3c4 9039 4237 1e39
00000030: 1fa2 4639 ccd2 4739 2145 b139 ffde 6439
00000040: b030 f339 832e 7239 a7d2 343a d207 0339
00000050: 15fe 0739 b3ac 6f38 fe97 8138 0ea0 9f38
00000060: a039 1139 b492 aa38 d44a ed38 baf9 af38
00000070: a487 3039 cfaf 7538 167a dd36 e900 9a36
00000080: dc62 d636 e1b4 ba36 d9bd f836 994e 1b37
00000090: 5c3c 0b37 d83d bc36 f549 3337 7ce6 4536
000000a0: 6eae 8f38 7eda 3438 4231 4c38 d97b 0f38
000000b0: 7447 6b38 ce79 5938 384b b438 253b 8038
000000c0: 535a de38 3966 c737 b12d dd39 b96d 5d39
000000d0: 29d9 8339 288e 8b39 b460 f939 559a d639
000000e0: 3926 1a3a c979 b539 e0e7 933a 920b 6039
000000f0: f04d df37 f7d2 9d37 ea32 9f37 5f1d a237
00000100: 30eb e837 08ec ba37 ed16 1838 b240 e037
00000110: 45ee 5338 8696 4f37 0f84 9538 b200 4738
00000120: 4805 7a38 30ce 8a38 4022 ba38 5804 c938
00000130: cab4 0639 05cc c538 b2f0 4d39 7e28 4f38
00000140: 1cc5 d837 fbc3 8a37 562c 8537 ffed 9937
00000150: 521e ef37 8a18 8637 2504 d837 7a7c ec37
00000160: 86e6 5838 da13 4237 2b0a 3838 6695 2838
00000170: 98a5 1938 c586 0738 ec45 1f38 3f02 4d38
00000180: 3f95 3538 3a41 0638 8e4d 8738 3a79 6f37
00000190: f556 8a39 e89b ec38 d230 2439 d513 1b39
000001a0: b847 5239 c34c 2f39 f1b9 d539 6d4c 2b39
000001b0: c5e8 dd39 da69 9a38 c821 3639 baea bb38
000001c0: 16d3 0539 41c2 f938 6ce6 2239 052a 3539
000001d0: 6b47 8739 931b 0d39 90c2 b139 1ef6 8938
000001e0: b3e9 bb38 218e 7238 2b1e 7d38 32a9 7b38
000001f0: 2b56 ac38 d6bc f238 3482 1039 6f81 b338
00000200: a11a 0839 ab07 1738 d265 b139 0fa7 3739
00000210: 0a28 3039 2209 4339 76bf 5839 3365 8a39
00000220: f5f3 dd39 b621 7539 5a56 2a3a a968 0c39
00000230: 73c7 7a37 ecc1 2337 536f d636 5e48 df36
00000240: 0182 2c37 f020 7537 c0d9 5737 d028 1d37
00000250: 234f b237 1edd a136 5311 4f38 260a 0a38
00000260: a85c 1e38 9284 0638 04f2 5338 6833 8638
00000270: 5145 9c38 8c67 5538 13a2 bd38 9dc7 fc37
00000280: 1916 2d39 717f dc38 a337 df38 f7ec fa38
00000290: afd1 1c39 0ecd 1939 472d 8839 ee8d 1439
000002a0: a7d6 9539 d3f6 c338 c950 bc38 6e15 7638
000002b0: 11b9 a138 8118 8938 73ce bb38 2991 0539
000002c0: 3000 0239 15c2 bf38 1dc4 4239 de24 0538
000002d0: b101 e938 8cde a538 7c2b 8a38 71ce 8838
000002e0: 9da2 b138 0632 8338 ede3 b738 49d8 b538
000002f0: 8d97 4939 1141 0e38 127d a035 3b2c 8035
00000300: 2eae 5c35 1c78 b235 5f22 ff35 0ac4 a735
00000310: 7e46 e635 ccba dc35 2772 1336 3f7a 8a35
00000320: 0ce5 f437 7a6c c937 e20e c637 b4ad f537
00000330: 85d4 0138 747e 6238 a2ef 7b38 8d3e 1e38
00000340: d156 ba38 5e52 c237 5049 7337 a16c 1637
00000350: 6cb2 5a37 7eda 1137 948e 5f37 8cd3 8c37
00000360: e2dd 4d37 bc5e 5737 c6b9 e237 a074 cc36
00000370: be12 7f37 d7ae e936 939e c036 0cc3 1e37
00000380: 6600 5b37 eca0 3a37 3ae0 d037 37c5 3537
00000390: 62fc df37 353c 1437 a2b8 3538 28a6 c137
000003a0: db50 d037 2de1 c837 20fe cb37 4345 2b38
000003b0: 4a37 8c38 72ff fe37 75f8 7e38 9930 4f37
000003c0: 2a51 9038 ef57 e337 156a a537 06e7 b837
000003d0: 41ed f837 6253 6f38 d1a5 ad38 2961 4438
000003e0: 9498 9c38 76ca 6637 e980 6838 2353 2738
000003f0: 31ad 4538 7263 1a38 787b 7438 a7ba 3438

exp_avg f4 [70, 70]
-0.0006459413 0.0023798705 -0.0008801636 0.002345527 -0.0011467697 7.221068e-05 0.000517581 0.0025288796
-0.00061136123 0.0013459325 0.0019072496 0.0005256794 -0.0006254898 0.001048713 -0.0023908545 -0.0002755478
0.0012543984 0.004152717 0.0009606377 0.00030910678 -4.59109e-05 0.0019570484 -0.0012081598 -0.00087089575
-0.0015346948 -0.0031372402 0.0028872984 0.0037107156 0.0013068928 -0.00048672315 -0.0038712788 0.0012263338
0.00087538623 0.0034209841 -0.00057506503 0.0002938214 -0.0021944914 0.0069693658 -0.002599023 0.00085958245
-0.00047455984 0.0028302143 0.0014192122 0.002830635 -0.0018984894 0.00032132753 0.00014257482 0.002717968
-0.0012712383 0.0024383275 -0.004294093 0.0020013228 0.0035658772 0.003822348 -0.0005832821 -0.0036932288
0.0011340559 0.0029539333 -0.0009913362 0.001429966 0.0042284383 0.0022667989 -8.677784e-05 -0.0010029589
-0.0030078164 0.00040000584 -0.0018392354 0.0032988503 0.0005785775 0.00109784 0.0010077314 0.003491766
-0.00020681662 0.0033340193 -0.0022702862 4.4588254e-05 -0.00043091606 0.0027768356 -0.00022356883 0.002682939
-0.00013816485 0.0004864357 0.0004900767 0.0018187666 -0.0016731563 -0.00173206 0.0019196798 0.0046499595
0.0004204898 0.0018276192 -5.2899006e-05 -0.0007217656 0.0025025588 0.004737019 0.00014388145 -0.001966381
0.00033902426 0.0047850553 0.0019843495 0.0016884346 -0.0061749564 0.0005443434 -0.002484921 0.0010694123
-0.0006895993 -0.00091084617 -0.0013443761 0.0014672937 -0.001995404 -0.0001361586 -0.0054336344 0.0044778236
0.0016004625 0.0022578726 -0.00026214344 0.002495101 0.0021328472 0.00046875258 0.0018432626 0.0034674802
0.00072268676 0.0019016028 0.0038420106 0.0028432843 -0.00011201855 -0.0004922202 0.0021873736 0.0004713225
0.0013495638 6.505055e-05 0.004443393 0.0013591618 0.005218155 0.0024941526 0.00021105289 0.0014868705
-0.0020144798 0.0033908957 0.0029690317 0.002557393 5.3652446e-05 -0.0029732017 0.0011891688 -0.0032264485
0.0015128829 0.0007852334 0.00035733316 -0.0026933444 0.0008387339 -0.001884051 0.00047789345 2.1537155e-05
0.0012387286 -0.0012273709 -0.000759074 0.0016048728 -0.00062960363 -0.003122075 -0.001201171 -0.0034254838
0.000417996 0.002908097 0.00033274613 -0.0027242021 -0.0013532197 -0.00025501958 -0.00066610135 -0.0026994105
-0.0012424365 -0.0023217495 0.002627278 -0.00087519793 0.0028815963 -7.257605e-05 -0.0002063832 -0.0019394296
0.0021926686 -0.00016449047 0.0004812187 0.0009924214 0.005467769 -0.0048781116 -0.001889948 -0.0001724037
-0.0030945758 -0.0029843727 -0.004635636 0.00038241083 -0.0007959536 -2.5865855e-05 0.00072241604 -0.0051920014
-0.0029901564 -0.0033600559 0.0004115097 0.00053468987 -0.0019859734 0.0025674729 -0.0012628183 -0.003360267
-0.006531789 0.0009602511 -0.0060179685 -0.0010063769 0.000117657735 -0.0021961376 -4.636799e-05 -0.0023234773
-0.0011734442 -0.00052078447 5.500704e-05 0.0018117465 -0.0012772579 0.0011873757 -0.0018186993 -0.0007839829
0.00066366413 0.0023006694 -0.00038214592 0.000112491 0.0005079734 0.0007574281 -0.0010502278 0.00117243
-0.0016910089 -0.00066496513 0.00026776956 0.0031043848 -0.00072959374 0.0005171194 -0.0015089664 0.0011698238
-0.00074346544 0.0009160638 -0.0014067681 -0.0009202678 0.00088291185 0.00038252413 -0.0017334982 0.00042017433
-0.002282049 -0.0003455029 -6.206328e-05 0.0013604397 0.0009756741 -0.00016463384 0.0004056536 0.0019651346
0.0002276373 0.0018560861 0.0011768227 4.1106046e-05 0.0039391834 0.00047021435 -7.774006e-05 0.0011098975
00000000: 6354 29ba 9af7 1b3b c8ba 66ba 6ab7 193b
00000010: 354f 96ba d06f 9738 46ae 073a 8fbb 253b
00000020: c243 20ba 006a b03a adfc f93a bfcd 093a
00000030: e9f7 23ba f874 893a e2af 1cbb 6677 90b9
00000040: a06a a43a 8413 883b 4ed3 7b3a 9c0f a239
00000050: 7490 40b8 d341 003b 1e5b 9eba d34c 64ba
00000060: d027 c9ba 289a 4dbb d438 3d3b 7a2f 733b
00000070: 0c4c ab3a e02e ffb9 48b5 7dbb efbc a03a
00000080: 2d7a 653a 9732 603b f6bf 16ba 0a0c 9a39
00000090: 75d1 0fbb 475f e43b 5f54 2abb 9a55 613a
000000a0: 58ce f8b9 1e7b 393b dc04 ba3a 2d82 393b
000000b0: bcd6 f8ba da77 a839 2380 1539 f01f 323b
000000c0: ae9f a6ba 59cc 1f3b 77b5 8cbb a028 033b
000000d0: 7eb1 693b 5c80 7a3b 66e7 18ba 190a 72bb
000000e0: 9aa4 943a c796 413b b9ef 81ba b26d bb3a
000000f0: b68e 8a3b 938e 143b 80fc b5b8 b775 83ba
00000100: c91e 45bb e0b7 d139 8012 f1ba 8631 583b
00000110: aeab 173a 66e5 8f3a db15 843a 1dd6 643b
00000120: eadc 58b9 907f 5a3b 15c9 14bb 4604 3b38
00000130: 93ec e1b9 92fb 353b cd6d 6ab9 3fd4 2f3b
00000140: 58e0 10b9 4b08 ff39 7e78 003a ae63 ee3a
00000150: cf4d dbba 4a06 e3ba c49d fb3a b05e 983b
00000160: 3075 dc39 b98c ef3a e0df 5db8 df34 3dba
00000170: f801 243b ff38 9b3b e2de 1639 66de 00bb
00000180: 11bf b139 f4cb 9c3b dc0b 023b 774e dd3a
00000190: 4a57 cabb 44b2 0e3a 0eda 22bb 862b 8c3a
000001a0: 3ac6 34ba dac5 6eba c735 b0ba 3552 c03a
000001b0: 53c5 02bb ccc5 0eb9 a10c b2bb b5ba 923b
000001c0: 9cc6 d13a d1f8 133b 4c70 89b9 d984 233b
000001d0: 3dc7 0b3b e8c2 f539 a199 f13a aa3e 633b
000001e0: b072 3d3a 343f f93a 3eca 7b3b 6556 3a3b
000001f0: 80eb eab8 5708 01ba 0a5a 0f3b d61b f739
00000200: d9e3 b03a c06b 8838 e299 913b e725 b23a
00000210: 0ffd aa3b f074 233b 144e 5d39 18e3 c23a
00000220: 5d05 04bb ca39 5e3b 1694 423b ef99 273b
00000230: e008 6138 0cda 42bb e2dd 9b3a d372 53bb
00000240: ed4b c63a 1fd8 4d3a 7258 bb39 d282 30bb
00000250: 7bde 5b3a 43f2 f6ba c68d fa39 b0aa b437
00000260: d65c a23a bcdf a0ba 98fc 46ba 985a d23a
00000270: fc0b 25ba ba9b 4cbb 9c70 9dba 157e 60bb
00000280: 7926 db39 c695 3e3b 6e74 ae39 8788 32bb
00000290: 855e b1ba 26b4 85b9 4e9d 2eba 98e8 30bb
000002a0: 40d9 a2ba 7e28 18bb 692e 2c3b 8a6d 65ba
000002b0: 2ad9 3c3b f833 98b8 9268 58b9 7534 feba
000002c0: e0b2 0f3b 137b 2cb9 154c fc39 2314 823a
000002d0: f92a b33b 91d8 9fbb 22b8 f7ba 44c7 34b9
000002e0: 5ece 4abb 7795 43bb 89e6 97bb 507e c839
000002f0: 8ba7 50ba 80fa d8b7 8560 3d3a aa21 aabb
00000300: 80f6 43bb 6234 5cbb e6bf d739 6e2a 0c3a
00000310: 1b27 02bb 0c43 283b 2785 a5ba ed37 5cbb
00000320: 9e08 d6bb 5cb9 7b3a 6132 c5bb 68e8 83ba
00000330: 04bf f638 13ed 0fbb 407b 42b8 7b45 18bb
00000340: 41ce 99ba 4185 08ba 5cb7 6638 2078 ed3a
00000350: aa69 a7ba b8a1 9b3a 6c61 eeba 3484 4dba
00000360: bff9 2d3a d4c6 163b c25a c8b9 25e9 eb38
00000370: 8529 053a 248e 463a cca7 89ba 39ac 993a
00000380: d8a4 ddba 0e51 2eba 6c63 8c39 ef72 4b3b
00000390: 3542 3fba 4c8f 073a 83c8 c5ba c654 993a
000003a0: 1fe5 42ba 0024 703a 4e63 b8ba 203e 71ba
000003b0: 3673 673a 858d c839 8c36 e3ba d84a dc39
000003c0: 6e8e 15bb 9d24 b5b9 f827 82b8 c850 b23a
000003d0: 61c4 7f3a 8fa1 2cb9 e8ad d439 7dc9 003b
000003e0: ecb1 6e39 ea47 f33a 9e3f 9a3a 4869 2c38
000003f0: 4414 813b 1a87 f639 6008 a3b8 fb79 913a

exp_avg_sq f4 [70, 70]
5.410614e-05 0.00043487884 7.270173e-05 0.00024594547 0.0001898634 1.4942905e-05 2.6220847e-05 0.0005553835
2.546129e-05 6.836985e-05 9.1571426e-05 5.1108895e-05 5.6194745e-05 0.00024011341 0.00017764677 2.9678398e-05
3.2850076e-05 0.00054001703 3.123339e-05 8.354981e-05 5.9877973e-05 6.4733846e-05 6.594342e-05 0.00022450223
0.00015848452 6.6171546e-05 4.304365e-05 0.0005078875 4.338183e-05 0.00012051941 0.00033604412 8.147678e-05
0.00010156785 0.00019205392 0.00015254706 0.00012683759 6.453444e-05 0.0004450356 7.16206e-05 0.00018842652
0.0004449786 0.00022477278 0.0002360238 0.0002022939 0.0001550001 0.00019391296 8.171462e-05 0.00036758318
0.00010864091 0.00025535634 0.00025789632 0.0004257079 0.00033632744 0.00021853775 0.00014448707 0.00032274096
0.00011453948 0.00021559857 0.0001674546 0.00033967695 0.00039445455 0.00031050935 0.0005674057 0.00019247648
0.00018269342 0.00032924538 0.00012371378 0.00020856936 0.0001731199 0.00029215272 3.8349273e-05 0.00019138143
3.857146e-05 0.00011166115 8.524665e-05 1.9524537e-05 1.6414673e-05 0.00024129763 1.5765821e-05 4.2405365e-05
6.850682e-05 2.910274e-05 4.8139656e-05 0.000115020426 7.609102e-05 3.407025e-05 2.0371912e-05 0.00021454156
2.6546057e-05 5.9649785e-05 5.18503e-05 6.158914e-05 7.5503725e-05 0.00010947286 7.058051e-05 6.912873e-05
3.3532277e-05 0.00018626204 4.2680233e-05 9.1067035e-05 0.00015095259 7.061905e-05 0.00011901327 0.00011291138
6.793981e-05 9.847941e-05 4.4968052e-05 0.00014800298 5.5904424e-05 0.00012889552 0.0001638692 9.908684e-05
0.00016576603 0.00010402959 7.153586e-05 0.00012654443 5.366112e-05 0.00011882611 7.0015594e-05 0.00016759762
9.88271e-05 0.00020355024 0.00017276 9.97344e-05 7.400042e-05 0.00015810975 6.765048e-05 9.319063e-05
7.6779834e-05 0.00016593667 0.00015711463 0.0002778943 0.00025677023 9.45261e-05 8.3527004e-05 0.0001085142
6.4031345e-05 6.459818e-05 0.00012129851 0.00021946827 4.8848902e-05 0.00021211868 4.3846274e-05 0.00013278016
9.136865e-05 2.602006e-05 1.9610236e-05 0.00026228488 2.0205061e-05 5.124303e-05 8.2999075e-05 4.0335104e-05
5.8231184e-05 0.00013735471 8.128165e-05 7.0088754e-05 3.2927503e-05 0.00023242895 3.8825325e-05 9.0177964e-05
8.1898936e-05 8.901665e-05 8.995799e-05 0.00013347197 7.8876445e-05 8.266086e-05 3.8956892e-05 0.00018830707
5.4908334e-05 0.000114538234 0.00016566853 8.497216e-05 0.00013506658 0.00012966087 7.7547054e-05 0.00011532824
5.2020736e-05 0.00014124083 6.959387e-05 0.00016079465 0.00017967189 0.00010144863 0.00022277528 0.00014469704
7.443633e-05 0.00016553138 5.9892533e-05 0.00011423013 8.1261845e-05 0.00023851347 0.00013018303 0.0003274732
0.00017452726 0.00011122979 9.7137774e-05 0.00017884374 8.024003e-05 9.9529e-05 0.00011374725 0.00031633332
0.00029606646 0.00010132574 0.00019789538 7.19648e-05 8.5659354e-05 0.00020857835 8.8541514e-05 6.975326e-05
7.067729e-05 0.000100616686 1.24871885e-05 9.3652474e-05 1.5970058e-05 5.328258e-05 4.1108313e-05 4.3923387e-06
6.0826396e-06 0.000118575714 6.2603694e-06 1.5967074e-05 2.2274911e-05 1.3867456e-05 1.5635056e-05 5.383522e-05
3.911756e-05 1.31280185e-05 9.8617775e-06 0.00011512449 9.303838e-06 2.6135815e-05 2.130015e-05 2.1788252e-05
2.5055453e-05 4.673348e-05 3.636271e-05 1.6237145e-05 9.754437e-06 0.00010408023 1.3986428e-05 2.9813396e-05
7.2207e-05 2.2836113e-05 3.290853e-05 5.3251762e-05 3.4433666e-05 4.0025592e-05 1.7609695e-05 8.806162e-05
1.814821e-05 5.0335035e-05 0.000101768506 5.0102724e-05 8.211819e-05 4.758515e-05 3.1888492e-05 4.679361e-05
00000000: 07f0 6238 7300 e439 7277 9838 3ef2 8039
00000010: 1116 4739 4ab3 7a37 d7f4 db37 2897 113a
00000020: b495 d537 c961 8f38 090a c038 c25d 5638
00000030: a6b2 6b38 f4c6 7b39 b146 3a39 e0f5 f837
00000040: 80c8 0938 ee8f 0d3a 9900 0338 7637 af38
00000050: 7c25 7b38 b8c1 8738 1b4b 8a38 5c68 6b39
00000060: dd2e 2639 94c5 8a38 c489 3438 c123 053a
00000070: e3f4 3538 5ebf fc38 142f b039 83de aa38
00000080: d300 d538 1562 4939 0af5 1f39 b5ff 0439
00000090: aa56 8738 ab53 e939 0433 9638 5c94 4539
000000a0: 044c e939 fcb0 6b39 287d 7739 db1e 5439
000000b0: 8687 2239 1d55 4b39 345e ab38 2eb8 c039
000000c0: 25d6 e338 59e1 8539 4236 8739 8c31 df39
000000d0: 1b55 b039 4827 6539 7481 1739 8f35 a939
000000e0: ea34 f038 4d12 6239 c096 2f39 ab16 b239
000000f0: cbce ce39 dccb a239 f4bd 143a 83d3 4939
00000100: 6491 3f39 919e ac39 2ab9 0139 69b3 5a39
00000110: 8587 3539 132c 9939 38d9 2038 90ad 4839
00000120: cac7 2138 a02b ea38 72c6 b238 a0c8 a337
00000130: 3eb2 8937 d704 7d39 d840 8437 6adc 3138
00000140: 52ab 8f38 a921 f437 90e9 4938 1f37 f138
00000150: 0e93 9f38 a7e6 0e38 59e4 aa37 90f6 6039
00000160: 39af de37 7830 7a38 d679 5938 6b29 8138
00000170: c157 9e38 cb94 e538 9f04 9438 34f9 9038
00000180: 02a5 0c38 564f 4339 8d03 3338 3efb be38
00000190: 0749 1e39 5019 9438 c396 f938 d6ca ec38
000001a0: e87a 8e38 bb86 ce38 149c 3c38 3f31 1b39
000001b0: eb7a 6a38 2128 0739 4ed4 2b39 d8cc cf38
000001c0: 7bd1 2d39 762a da38 8605 9638 03b1 0439
000001d0: 3012 6138 4832 f938 56d5 9238 25bd 2f39
000001e0: 6541 cf38 1a70 5539 e926 3539 8028 d138
000001f0: ac30 9b38 43ca 2539 93df 8d38 576f c338
00000200: dc04 a138 49ff 2d39 23bf 2439 57b2 9139
00000210: 1e9f 8639 503c c638 382b af38 1e92 e338
00000220: 9148 8638 e278 8738 a461 fe38 1121 6639
00000230: 1ce3 4c38 2d6c 5e39 94e7 3738 e73a 0b39
00000240: 2c9d bf38 a745 da37 a980 a437 4883 8939
00000250: 0a7e a937 c9ed 5638 ca0f ae38 7d2d 2938
00000260: 423d 7438 e006 1039 c175 aa38 9dfc 9238
00000270: a31b 0a38 2cb8 7339 60d8 2238 ed1d bd38
00000280: 28c1 ab38 73ae ba38 d4a7 bc38 9cf4 0b39
00000290: 786a a538 365a ad38 a565 2338 4b74 4539
000002a0: 604d 6638 3f34 f038 4fb7 2d39 1533 b238
000002b0: a9a0 0d39 93f5 0739 c2a0 a238 61dc f138
000002c0: d730 5a38 0c1a 1439 edf2 9138 fc9a 2839
000002d0: 4e66 3c39 d2c0 d438 c998 6939 d1b9 1739
000002e0: b31a 9c38 7e92 2d39 1e35 7b38 d68e ef38
000002f0: 1f6b aa38 7919 7a39 be81 0839 b5b0 ab39
00000300: 4e01 3739 0a44 e938 72b6 cb38 0088 3b39
00000310: 8a46 a838 3aba d038 978b ee38 8ad9 a539
00000320: 5e39 9b39 d87e d438 2382 4f39 cfeb 9638
00000330: 04a4 b338 d3b5 5a39 5daf b938 7f48 9238
00000340: 9538 9438 2c02 d338 1180 5137 4a67 c438
00000350: 70f7 8537 bc7b 5f38 b76b 2c38 e761 9336
00000360: 7a19 cc36 daab f838 2a10 d236 08f1 8537
00000370: 02db ba37 45a8 6837 0728 8337 21cd 6138
00000380: 2912 2438 6940 5c37 0374 2537 fd6e f138
00000390: ae17 1c37 3c3e db37 b9ad b237 eac5 b637
000003a0: 2d2e d237 b103 4438 2a84 1838 0135 8837
000003b0: fda6 2337 a645 da38 40a7 6a37 c817 fa37
000003c0: d76d 9738 2e90 bf37 4407 0a38 a55a 5f38
000003d0: de6c 1038 27e1 2738 88b8 9337 b9ad b838
000003e0: fc3c 9837 d51e 5338 8d6c d538 6425 5238
000003f0: de36 ac38 2a96 4738 02c0 0538 4244 4438

exp_avg f4 [70]
-0.0003004792 -0.00016899126 -0.00021632647 -1.7990622e-05 0.00011642361 -0.00051495724 0.0003679486 -0.0002618205
-0.00020619886 -0.0006220634 3.2175813e-05 -0.00031875932 -0.00020530423 -4.2554733e-05 -0.00023154258 -0.0003507581
0.00072303705 0.00037292167 -6.600641e-05 -0.00019439081 -7.478282e-05 -0.0005416566 0.0001739353 0.00024247594
-0.00019763969 -0.00026800262 -0.00043183376 -3.8276165e-05 -0.00011996672 0.000101251615 -0.00029887023 -0.00015404531
-0.00015993502 -0.00034111665 0.00059544377 -0.0004327325 0.00024431842 0.00043503454 0.00061198865 -9.4461866e-05
-0.0006637476 0.0003817506 -0.0007063904 -0.00017624584 -0.00051387836 0.00017553093 -0.0005198138 -0.00054264633
-0.00028959333 -0.00015177243 0.0006075769 0.0004109274 0.000421146 0.00014488646 -0.0006980986 0.00064797513
-0.00036565086 -0.0004035284 0.00027263584 0.0004167946 -6.662618e-05 0.00035614707 -0.00031028458 -0.0009235875
-0.00033948745 0.0014739692 -0.0006649316 0.0001709142 0.00044050202 -0.00054894784
00000000: a389 9db9 3f33 31b9 b2d5 62b9 91ea 96b7
00000010: 7328 f438 32fe 06ba 3ae9 c039 f444 89b9
00000020: 1637 58b9 f811 23ba 84f4 0638 271f a7b9
00000030: ef46 57b9 cc7c 32b8 3dca 72b9 f5e5 b7b9
00000040: 328a 3d3a b384 c339 ec6c 8ab8 63d5 4bb9
00000050: b9d4 9cb8 f6fd 0dba 6762 3639 2441 7e39
00000060: 803d 4fb9 b482 8cb9 bf67 e2b9 b88a 20b8
00000070: a496 fbb8 0c57 d438 afb1 9cb9 3987 21b9
00000080: 3bb4 27b9 e7d7 b2b9 8e17 1c3a 5fe0 e2b9
00000090: dd17 8039 5915 e439 dd6d 203a d419 c6b8
000000a0: 59ff 2dba b325 c839 0f2d 39ba a2ce 38b9
000000b0: cbb5 06ba ba0e 3839 1d44 08ba 6140 0eba
000000c0: 8fd4 97b9 1a25 1fb9 cc45 1f3a be71 d739
000000d0: 42cd dc39 aaec 1739 9b00 37ba e0dc 293a
000000e0: d4b4 bfb9 aa90 d3b9 90f0 8e39 3985 da39
000000f0: a8b9 8bb8 40b9 ba39 b1ad a2b9 e81c 72ba
00000100: 3cfd b1b9 3332 c13a ce4e 2eba 6e37 3339
00000110: 2ef3 e639 44e7 0fba

exp_avg_sq f4 [70]
2.7373196e-06 1.703467e-06 1.2263095e-06 1.3112796e-06 2.6371965e-06 1.7604357e-06 1.6947223e-06 2.9197029e-06
2.75093e-06 3.0016e-06 1.4359565e-06 1.0772167e-06 2.0250473e-06 1.4622885e-06 9.3877384e-07 8.61877e-07
2.4752894e-06 1.1156784e-06 1.2651362e-06 1.9336403e-06 1.8315297e-06 8.436524e-07 1.0928683e-06 1.9268452e-06
3.8940434e-06 1.0205944e-06 3.690375e-06 2.2106826e-06 1.9475983e-06 7.063969e-07 9.288838e-07 5.49168e-07
7.8408635e-07 2.1206533e-06 2.0689397e-06 2.228545e-06 1.7047577e-06 6.201273e-06 2.4768185e-06 2.9197843e-06
2.397584e-06 2.1362177e-06 1.646956e-06 6.620747e-07 1.9459887e-06 1.1540131e-06 2.7392541e-06 1.3920094e-06
4.7275053e-06 1.3629119e-06 3.4070401e-06 2.8545098e-06 4.200551e-06 1.5070224e-06 4.032854e-06 1.7418469e-06
2.2817972e-06 2.2768036e-06 5.9891154e-06 4.0248133e-06 4.9850187e-06 2.8034644e-06 3.3102208e-06 8.080899e-06
3.6139152e-06 1.000183e-05 1.1290235e-05 5.5055716e-06 2.6572601e-05 3.3657686e-06
00000000: cbb2 3736 aea2 e435 ac97 a435 39ff af35
00000010: b1fa 3036 1c48 ec35 3776 e335 1df0 4336
00000020: 9e9c 3836 186f 4936 17bb c035 e294 9035
00000030: 0ce6 0736 da43 c435 0c00 7c35 bd5b 6735
00000040: 261d 2636 6bbe 9535 c0cd a935 b0c3 0136
00000050: e2d2 f535 5a77 6235 abae 9235 f34e 0136
00000060: 94a9 8236 5bfb 8835 29a8 7736 3d5b 1436
00000070: 7cb3 0236 3a9f 3d35 6958 7935 8a6a 1335
00000080: 017a 5235 8c50 0e36 1dd8 0a36 1d8e 1536
00000090: 07cf e435 8814 d036 6b37 2636 83f1 4336
000000a0: 2ee6 2036 f15b 0f36 fa0c dd35 6db9 3135
000000b0: d597 0236 97e3 9a35 07d4 3736 14d5 ba35
000000c0: f6a0 9e36 4ced b635 81a4 6436 1b90 3f36
000000d0: 75f2 8c36 e544 ca35 f451 8736 67c9 e935
000000e0: fa20 1936 30cb 1836 1cf6 c836 e20c 8736
000000f0: fc44 a736 2723 3c36 2925 5e36 3293 0737
00000100: 9786 7236 88cd 2737 316b 3d37 80bc b836
00000110: 3ae8 de37 77df 6136

exp_avg f4 [70]
0.000688181 0.0013660465 -0.0012139177 0.00041385947 0.001607999 0.0012805666 0.00053039135 -0.0012883082
-0.00025785295 0.0012493151 0.00057202997 0.00020364931 0.003460803 0.00026243698 -0.001143164 0.00021838563
0.002427925 -0.0029213945 -0.0012020041 0.00011860274 1.4028366e-05 -0.0008345547 0.0019529964 -2.4882378e-05
-0.0004801448 0.00068172667 -0.0021614763 0.0009146818 -0.0016578377 0.0004099175 -0.0007547738 2.3796863e-05
8.5445645e-05 -0.00077117665 -0.0020716833 0.00033690387 -0.00017124356 0.00053862913 -6.8112015e-05 -0.0014168578
-0.0016556903 0.000110219495 -0.00206701 -0.00019349433 0.00075946515 -0.00026859605 -0.0019731144 -0.00042346164
-0.000105235245 -0.0011504195 0.00044781083 -0.0013047005 -0.0015542554 0.00019557202 0.0018947596 -0.0011910493
0.0014171374 9.015715e-05 0.0027610557 -0.0014547226 -0.0020192964 -0.00020799614 -0.0020838298 -0.004636464
-0.001318215 -9.636092e-05 -0.00047717415 0.0018061379 0.00017023957 -0.0013505245
00000000: 0c67 343a ea0c b33a 521c 9fba 47fb d839
00000010: 7ec3 d23a afd8 a73a f609 0b3a 73dc a8ba
00000020: 7030 87b9 0fc0 a33a 48f4 153a b28a 5539
00000030: a4ce 623b b297 8939 38d6 95ba 72fe 6439
00000040: d21d 1f3b de74 3fbb 918c 9dba 5cba f838
00000050: 605b 6b37 05c6 5aba affb ff3a 80ba d0b7
00000060: f2bb fbb9 e7b5 323a 8ea7 0dbb 42c7 6f3a
00000070: cd4b d9ba 32ea d639 03dc 45ba 609f c737
00000080: 4831 b338 ca28 4aba 14c5 07bb 79a2 b039
00000090: d88f 33b9 ca32 0d3a 5cd7 8eb8 dcb5 b9ba
000000a0: bf03 d9ba a425 e738 ac76 07bb bde4 4ab9
000000b0: d816 473a 5ad2 8cb9 5e4f 01bb 0f04 deb9
000000c0: beb1 dcb8 acc9 96ba 27c8 ea39 7c02 abba
000000d0: 28b8 cbba 7712 4d39 9559 f83a fc1c 9cba
000000e0: 3ebf b93a c012 bd38 d4f2 343b 64ac beba
000000f0: 2c56 04bb 8a19 5ab9 dd90 08bb 7bed 97bb
00000100: f5c7 acba 6015 cab8 3b2d fab9 eebb ec3a
00000110: 5682 3239 1504 b1ba

exp_avg_sq f4 [70]
6.1162165e-05 3.230436e-05 2.425934e-05 1.793772e-05 3.7569833e-05 3.5127057e-05 2.9126964e-05 5.2171745e-05
5.5558183e-05 4.8079975e-05 2.6181573e-05 1.443697e-05 3.331392e-05 3.1379557e-05 2.1519758e-05 2.1653783e-05
4.4593307e-05 2.2358603e-05 3.157749e-05 3.306118e-05 2.598946e-05 2.0777641e-05 1.9191279e-05 5.1787003e-05
4.831147e-05 2.0550495e-05 7.62819e-05 3.198427e-05 3.559964e-05 1.7353148e-05 1.9516334e-05 1.9039931e-05
1.47444935e-05 2.496352e-05 3.740076e-05 3.218528e-05 3.0799412e-05 6.602733e-05 4.110436e-05 4.5281897e-05
3.128018e-05 3.848556e-05 3.028648e-05 1.9854511e-05 3.6857466e-05 1.9527553e-05 6.1879626e-05 3.1220254e-05
4.741531e-05 1.9917174e-05 5.0285787e-05 4.1360763e-05 5.0651157e-05 2.4074781e-05 7.047845e-05 3.8041322e-05
5.2653104e-05 4.4097415e-05 6.1631894e-05 4.803233e-05 6.848974e-05 4.9242804e-05 4.6474754e-05 9.1712034e-05
3.532401e-05 0.00012659511 0.00013851156 6.8665824e-05 0.00016620969 4.596353e-05
00000000: 3044 8038 8b7e 0738 8980 cb37 f678 9637
00000010: 4d94 1d38 6455 1338 ae55 f437 fcd2 5a38
00000020: 2507 6938 7ba9 4938 80a0 db37 5036 7237
00000030: 8dba 0b38 8b9d 0338 5485 b437 25a5 b537
00000040: b309 3b38 bc8e bb37 1272 0438 2cab 0a38
00000050: f103 da37 a54b ae37 f5fc a037 df35 5938
00000060: 0ca2 4a38 da63 ac37 89f9 9f38 d926 0638
00000070: d350 1538 9a91 9137 02b7 a337 f1b7 9f37
00000080: 1e5f 7737 c068 d137 c3de 1c38 aefe 0638
00000090: 9e2e 0138 2778 8a38 7867 2c38 11ed 3d38
000000a0: d632 0338 8e6b 2138 b80f fe37 3d8d a637
000000b0: 6797 1a38 1acf a337 5fc5 8138 7ef2 0238
000000c0: cddf 4638 ce13 a737 f4e9 5238 c87a 2d38
000000d0: 4472 5438 33f4 c937 d4cd 9338 8f8e 1f38
000000e0: d7d7 5c38 3df5 3838 5f40 8138 5276 4938
000000f0: 26a2 8f38 0f8a 4e38 e3ed 4238 8655 c038
00000100: de28 1438 9ebe 0439 6a3d 1139 af00 9038
00000110: 9348 2e39 f7c8 4038

exp_avg f4 [25, 70]
0.00024513807 0.0011819119 0.0028567426 0.0016922826 -0.0005462263 -0.0015560135 0.0010491615 -0.0043798615
-0.00032119174 -0.0002260626 0.0031086348 -0.00025658903 0.003259255 0.002817492 0.002358783 -0.0013085746
-0.0012701566 -0.0028908784 0.0020071226 0.001845484 -0.0025125353 -0.0013837696 0.00066836533 0.0015117538
-0.0012576038 -9.152375e-05 -0.0017835291 0.0006127753 0.0004025615 0.0010139664 -0.0006295753 0.00050094
-0.002655333 -0.0013649338 0.0031936776 0.0030470267 0.0024682232 0.00073372363 -0.004396936 0.008170974
0.00015147985 0.0031806908 -0.00016602245 -0.004831919 -0.00055975484 0.0017685974 -0.002736307 -0.00029343134
0.0020586718 -0.0070746914 -0.00392179 5.64754e-06 -0.0008934447 -0.002205293 -0.0033351115 0.00041509187
0.0008924311 -0.0003641327 0.00037455614 -0.008710946 0.0063110967 0.0011225657 -0.0032812557 0.0010143968
0.00039212662 0.005035166 -0.0031390833 -0.002337185 0.0006467799 5.1653245e-05 -0.002424364 0.0060075386
0.000836214 0.0017655691 -0.006081839 -0.005216481 -0.001924172 -0.0006420626 0.0010420963 -0.00037604664
-0.0058790757 0.0021149851 0.00016517284 0.0006354704 0.00049423735 0.0013438502 0.0027283714 0.004465898
-0.0017724541 -0.004962837 -0.002074433 -0.0010711823 -0.007973703 -0.0032661073 -0.0010200846 -0.010805428
0.0038192444 0.0012155897 -0.0021408428 0.009991249 0.0013190056 -0.010259498 0.0021180182 0.0027666087
0.00351167 -0.0019773485 -0.006264349 -0.014337252 0.0021877193 0.0012635104 0.0056318003 -0.0060250806
-0.0046257405 0.0013912609 -0.006744296 0.0002574001 0.00039237033 -0.0072232643 0.0065129315 3.5230536e-05
0.010821178 -0.0045422083 0.0038910017 -0.0012648508 0.0041414993 0.0044538444 -0.006302948 -0.009708592
0.0035420486 0.005154001 -0.0035409597 0.0023233094 0.00034031342 0.0052688764 0.008602992 -0.008441781
0.00039114722 -0.00047198185 -0.0013422896 0.018302925 -0.011647417 0.00030276537 -0.0057982914 0.0027382313
0.0035982367 -0.000997759 0.003848339 -0.00033317241 0.0006036863 0.006677876 0.005026508 -0.0030275674
-0.0006175446 0.00419071 0.0013648726 0.0031753369 -0.0054393024 -0.0059480937 -0.002451153 0.004358519
-0.0016816104 0.0029509175 0.0013395544 -0.003856861 0.00639678 0.0056815036 -0.0007581105 -0.009646173
0.00035823835 0.0001830814 0.006603035 0.0016723243 0.00089475163 0.0034132742 0.010097312 0.0016780419
0.0040573967 -0.0059078215 -0.0014656135 0.009367416 0.0089430725 -0.0040635755 -0.004485567 0.0022156776
-9.121312e-05 0.010440735 -0.00538706 0.004190363 0.0061442526 -0.006160692 0.0052658515 -0.0059385356
0.00052272785 -0.0005365312 0.004861831 0.0063401368 -0.007375357 -0.001648623 -0.0040331185 0.0003704814
-0.0029499233 -0.0043652784 -0.009579973 -0.001657624 0.005862448 -0.0011568585 0.0023368408 0.0028852187
0.0033410382 -0.0064451536 0.0012979932 -0.0007942672 0.00066374795 -0.0018726535 0.002564658 0.0003975964
0.00020091352 0.00063658063 -0.0012001812 -0.00078171864 0.0028659857 0.0005852837 0.00021486892 0.0022853503
-0.0028232941 0.0034757962 0.0011841822 -0.0011690125 0.0004712198 0.0020013358 0.0019231383 -0.00015988678
-0.0006407327 -0.0019712544 -0.0014879516 0.00014333005 -0.00053185096 0.0003944385 0.0023058443 -0.0007328513
2.4830806e-05 0.0011574236 0.0030164714 -0.0026905576 -0.0010485979 -0.0033087567 0.0015518748 0.00076378556
0.0011221219 -0.00086698297 0.0035932239 -0.000100475096 0.0005344603 0.00037140588 -0.0007325823 -0.00061330514
00000000: e085 8039 62ea 9a3a 3038 3b3b 95cf dd3a
00000010: a030 0fba 26f3 cbba 0584 893a f184 8fbb
00000020: a065 a8b9 380b 6db9 3dba 4b3b cc86 86b9
00000030: 3a99 553b aca5 383b d095 1a3b 7a84 abba
00000040: 627b a6ba e474 3dbb ee89 033b 2be4 f13a
00000050: 59a9 24bb 9a5f b5ba 3d35 2f3a 0a26 c63a
00000060: 2ed6 a4ba 70f0 bfb8 4ec5 e9ba a7a2 203a
00000070: e40e d339 11e7 843a 150a 25ba 8451 033a
00000080: 1805 2ebb 94e7 b2ba 054d 513b a0b0 473b
00000090: eac1 213b 5c57 403a 2c14 90bb 8ddf 053c
000000a0: 90d6 1e39 2373 503b 5016 2eb9 1355 9ebb
000000b0: 83bc 12ba 48d0 e73a 9d53 33bb b0d7 99b9
000000c0: c8ea 063b d0d2 e7bb 5c82 80bb 0080 bd36
000000d0: 0f36 6aba ad86 10bb e391 5abb b0a0 d939
000000e0: 0af2 693a 10e9 beb9 1360 c439 5bb8 0ebc
000000f0: 51cd ce3b 0e23 933a 560a 57bb 82f5 843a
00000100: 5896 cd39 09fe a43b 14b9 4dbb 752b 19bb
00000110: aa8c 293a 40a6 5838 14e2 1ebb e3da c43b
00000120: 5f35 5b3a ab6a e73a 2a4a c7bb 04ef aabb
00000130: 8034 fcba 1750 28ba f396 883a 2028 c5b9
00000140: 43a5 c0bb 909b 0a3b 3f32 2d39 b295 263a
00000150: b58f 013a 2124 b03a 7ace 323b ab56 923b
00000160: b151 e8ba 4b9f a2bb 36f3 07bb ea66 8cba
00000170: 22a4 02bc 300c 56bb 5cb4 85ba 4009 31bc
00000180: 4a4c 7a3b 6c54 9f3a 624d 0cbb 56b2 233c
00000190: 7ce2 ac3a 7417 28bc 73ce 0a3b fe4f 353b
000001a0: 0c24 663b 6796 01bb 2b45 cdbb cbe6 6abc
000001b0: d75f 0f3b 609c a53a f78a b83b 0a6e c5bb
000001c0: 8693 97bb f85a b63a 41ff dcbb a8f3 8639
000001d0: 0eb7 cd39 22b1 ecbb 6e6a d53b 80c4 1338
000001e0: 4f4b 313c ced6 94bb 2d00 7f3b 5ac9 a5ba
000001f0: 6ab5 873b 8ef1 913b f688 cebb c910 1fbc
00000200: b721 683b e5e2 a83b 720f 68bb aa42 183b
00000210: 186c b239 8aa6 ac3b 90f3 0c3c 654f 0abc
00000220: e412 cd39 5574 f7b9 c4ef afba 04f0 953c
00000230: cfd4 3ebc 7bbc 9e39 98ff bdbb e673 333b
00000240: 65d0 6b3b 3dc7 82ba 6a34 7c3b a5ad aeb9
00000250: b440 1e3a 16d2 da3b 68b5 a43b 276a 46bb
00000260: b7e2 21ba 3952 893b 86e5 b23a 5019 503b
00000270: 2d3c b2bb 3ae8 c2bb 86a3 20bb e8d1 8e3b
00000280: 7b69 dcba 2e64 413b fd93 af3a 64c3 7cbb
00000290: 149c d13b e82b ba3b efbb 46ba fb0a 1ebc
000002a0: f0d1 bb39 8af9 3f39 465e d83b e431 db3a
000002b0: c48d 6a3a 3db1 5f3b 326f 253c bef1 db3a
000002c0: e9f3 843b 6696 c1bb d419 c0ba ca79 193c
000002d0: f785 123c be27 85bb aafb 92bb e734 113b
000002e0: ac49 bfb8 9e0f 2b3c ef85 b0bb 504f 893b
000002f0: ba55 c93b a1df c9bb 2a8d ac3b 0c98 c2bb
00000300: ac07 093a 00a6 0cba ff4f 9f3b ecc0 cf3b
00000310: fbac f1bb 9c16 d8ba 4028 84bb 2c3d c239
00000320: 8053 41bb 9c0a 8fbb 52f5 1cbc a244 d9ba
00000330: c719 c03b bba1 97ba af25 193b f015 3d3b
00000340: 52f5 5a3b de31 d3bb 6d21 aa3a 5f36 50ba
00000350: 5fff 2d3a d373 f5ba d213 283b 7c74 d039
00000360: 50ac 5239 34e0 263a 664f 9dba 40ec 4cba
00000370: 43d3 3b3b b96d 193a 704e 6139 d1c5 153b
00000380: 0407 39bb 2fca 633b 9036 9b3a 8d39 99ba
00000390: 0d0e f739 d828 033b d011 fc3a 48a7 27b9
000003a0: d8f6 27ba 2930 01bb 5f07 c3ba de4a 1639
000003b0: ea6b 0bba a4cc ce39 a61d 173b d11c 40ba
000003c0: c04b d037 b1b4 973a feaf 453b 1154 30bb
000003d0: 1b71 89ba bad7 58bb 4768 cb3a c838 483a
000003e0: 2a14 933a 3e46 63ba 4b7c 6b3b 28b6 d2b8
000003f0: 061b 0c3a 41b9 c239 c40a 40ba 36c6 20ba

exp_avg_sq f4 [25, 70]
0.00016834507 0.00015688187 6.511599e-05 0.00016646823 0.0003228787 0.00015000722 0.00010331193 0.00012702862
0.000110692876 0.00022131424 0.00016347186 5.6294874e-05 0.00017911533 0.00016949972 0.00027632588 9.7255615e-05
0.00015176552 0.00029668008 0.00024272021 0.00030309442 0.00010986777 9.1352806e-05 0.00031158188 0.00016301153
9.384624e-05 0.00031590372 0.00012155454 0.0003594844 0.00019499208 0.00017967928 0.00021093951 0.00025866562
0.00011174106 0.00016607161 0.00013777064 8.879081e-05 0.00017507962 0.0002724571 0.0001594784 0.000295125
0.00020120753 0.00018503595 0.00016961958 0.00024218867 0.0001332872 0.00018763657 0.0001513529 0.00028461718
0.00028988288 0.00015061106 0.0001725943 0.00023933106 0.00020929496 0.00031454323 0.00023645295 0.00033826806
0.00025334227 0.0005974609 0.00012010221 0.00021535483 0.0004746765 0.00031456503 0.00057494896 0.00028335763
0.0001787649 0.0003122909 0.00030300725 0.00012265051 0.00018379539 0.00038523908 0.00022855533 0.0001544396
0.00010110774 0.0002621388 0.000692148 0.00031363752 0.00017658541 0.00017473513 0.00015060506 0.00037254277
0.00029612132 8.030128e-05 0.00024250131 0.00029912934 0.00052206643 0.00020732109 0.00025146845 0.0006124421
0.00027623892 0.0004934581 0.00019205161 0.00010807885 0.00062228774 0.00028225261 0.0001708474 0.0006104788
0.00019056455 0.0006605236 0.00032792523 0.000288213 0.00031218256 0.00044293705 0.00015732525 0.00030280327
0.00025383732 0.00016357444 0.00025618525 0.00036317197 0.00026479154 0.00055976684 0.00035614922 0.0002479391
0.0002660504 0.0003746387 0.00025379768 0.0003558226 0.00028653734 0.00046721686 0.00045042485 0.00031291763
0.000359438 0.00047399785 0.0004022379 0.0004525837 0.0005011022 0.00052037026 0.000552843 0.0006345158
0.00027543603 0.0003190779 0.00088032655 0.00048775945 0.0008852499 0.00045570632 0.00038574624 0.00059697655
0.00047126773 0.00031934245 0.00035318045 0.0007699288 0.00026155324 0.00026921334 8.083448e-05 0.00020951204
0.00070499285 9.687131e-05 0.00016276384 0.00015607807 0.00016728305 0.00025911743 0.00031224676 0.00012944071
0.0002198117 0.00021853622 0.00029935926 0.00023533952 0.00024237747 0.0004006397 0.0002707613 0.00040621083
0.0001900872 0.00018568353 0.0005753628 0.0002689463 0.0002358536 0.00071532687 0.00020876163 0.00052980357
0.00033052277 0.0002580832 0.00035116434 0.00035268406 0.00021592937 0.00024856807 0.000298982 0.00016068072
0.00021938246 0.00039208063 0.00024355721 0.00049007614 0.0004078757 0.0003111881 0.00029031123 0.00038481332
0.00030208242 0.00038640763 0.00032073102 0.0006751496 0.00040836443 0.0003185517 0.00029647208 0.00040986852
0.00034334138 0.0003635171 0.00046837295 0.00035407295 0.00036716994 0.0007700665 0.00030841064 0.00029535114
0.00046496768 0.00031816162 0.00061858504 0.0004593081 0.0003107195 0.00048458003 0.0005291022 0.00027356224
0.00039517548 0.00054676406 9.822438e-05 8.4653206e-05 2.4381838e-05 7.26719e-05 0.00016892208 3.8361788e-05
5.137742e-05 8.071444e-05 4.190639e-05 9.934363e-05 0.000105829335 4.6485347e-05 6.521522e-05 8.190216e-05
0.00011328431 6.132331e-05 9.076579e-05 0.000121047015 9.1898444e-05 0.00014697036 6.924838e-05 6.1974286e-05
0.00018805392 0.00010816535 6.1242215e-05 0.00018854022 9.201606e-05 0.00016612328 0.00010131322 0.00010723979
0.00014715047 0.00014070304 7.344963e-05 9.06078e-05 9.125035e-05 5.8950103e-05 7.033715e-05 0.0001548465
0.000105878025 0.00014195834 0.00015516859 9.295365e-05 0.00010109015 0.00012790074 0.0001244824 9.536052e-05
00000000: c985 3039 a880 2439 e28e 8838 fa8d 2e39
00000010: 0c48 a939 424b 1d39 2ca9 d838 fc32 0539
00000020: c923 e838 9710 6839 a569 2b39 291e 6c38
00000030: e8d0 3b39 bcbb 3139 d5df 9039 b6f5 cb38
00000040: 3f23 1f39 ba8b 9b39 b682 7e39 a5e8 9e39
00000050: cf68 e638 aa94 bf38 d05b a339 13ee 2a39
00000060: 51cf c438 e19f a539 19eb fe38 2e79 bc39
00000070: ca76 4c39 4a68 3c39 a52f 5d39 839d 8739
00000080: 8656 ea38 8223 2e39 8676 1039 3435 ba38
00000090: 9495 3739 93d8 8e39 a839 2739 02bb 9a39
000000a0: 3cfb 5239 3606 4239 e9db 3139 07f4 7d39
000000b0: 03c3 0b39 4fc0 4439 7cb4 1e39 ac38 9539
000000c0: 6cfb 9739 59ed 1d39 6efa 3439 f1f4 7a39
000000d0: 3076 5b39 47e9 a439 5bf0 7739 9259 b139
000000e0: 06d3 8439 ec9e 1c3a 62df fb38 dfd0 6139
000000f0: 00de f839 34ec a439 2cb8 163a 9e8f 9439
00000100: d672 3b39 faba a339 f2dc 9e39 bf9b 0039
00000110: 33b9 4039 eaf9 c939 5ba8 6f39 10f1 2139
00000120: ce09 d438 ad6f 8939 4471 353a b76f a439
00000130: c929 3939 1b39 3739 bdeb 1d39 d851 c339
00000140: bb40 9b39 6c67 a838 f347 7e39 76d4 9c39
00000150: 49db 083a 5564 5939 86d7 8339 4b8c 203a
00000160: 29d4 9039 6a5b 013a 7661 4939 64a8 e238
00000170: 0621 233a 4efb 9339 8025 3339 8a08 203a
00000180: 48d2 4739 fd26 2d3a 61ed ab39 4b1b 9739
00000190: 6fac a339 013a e839 adf7 2439 91c1 9e39
000001a0: 7815 8539 2e85 2b39 9a50 8639 1e68 be39
000001b0: b8d3 8a39 51bd 123a 8ab9 ba39 d3fd 8139
000001c0: ae7c 8b39 286b c439 2610 8539 b38d ba39
000001d0: 643a 9639 c9f4 f439 0027 ec39 180f a439
000001e0: f472 bc39 ea82 f839 75e3 d239 c248 ed39
000001f0: 665c 033a 7569 083a aaec 103a a255 263a
00000200: 6668 9039 e949 a739 b7c5 663a f7b9 ff39
00000210: 1d10 683a deeb ee39 fc3d ca39 6b7e 1c3a
00000220: 7c14 f739 6b6d a739 142b b939 0cd5 493a
00000230: 1521 8939 3425 8d39 ae85 a938 76b0 5b39
00000240: 45cf 383a 6327 cb38 96ab 2a39 e3a8 2339
00000250: b468 2f39 27da 8739 0db5 a339 7aba 0739
00000260: 417d 6639 df26 6539 52f3 9c39 79c5 7639
00000270: b526 7e39 f30c d239 f7f4 8d39 b2f8 d439
00000280: 2552 4739 0bb4 4239 f2d3 163a 5d01 8d39
00000290: 784f 7739 c684 3b3a 06e7 5a39 84e2 0a3a
000002a0: 044a ad39 574f 8739 7b1c b839 74e8 b839
000002b0: 196b 6239 3e52 8239 afc0 9c39 677c 2839
000002c0: 080a 6639 2c90 cd39 6463 7f39 7478 003a
000002d0: 26d8 d539 f626 a339 ea34 9839 c5c0 c939
000002e0: d160 9e39 c196 ca39 ca27 a839 86fc 303a
000002f0: bf19 d639 4903 a739 cf6f 9b39 9fe3 d639
00000300: 8002 b439 7096 be39 f48f f539 dea2 b939
00000310: b780 c039 4ade 493a 2db2 a139 5cd9 9a39
00000320: e8c6 f339 eece a639 8a28 223a 4acf f039
00000330: 11e8 a239 3b0f fe39 73b3 0a3a e76c 8f39
00000340: 8e2f cf39 b754 0f3a d0fd cd38 d887 b138
00000350: 9987 cc37 6e67 9838 ad20 3139 a8e6 2038
00000360: 167e 5738 3c45 a938 a5c4 2f38 b556 d038
00000370: b1f0 dd38 43f9 4238 28c4 8838 e3c2 ab38
00000380: 0d93 ed38 b49a 8038 8359 be38 9fda fd38
00000390: 9ab9 c038 0e1c 1a39 7139 9138 31f8 8138
000003a0: 5730 4539 d5d6 e238 2a6f 8038 e1b2 4539
000003b0: bff8 c038 6131 2e39 1f78 d438 ede5 e038
000003c0: 674c 1a39 af89 1339 f808 9a38 b104 be38
000003d0: a95d bf38 3141 7738 f881 9338 4a5e 2239
000003e0: d50a de38 a7da 1439 c0b4 2239 1cf0 c238
000003f0: 5c00 d438 181d 0639 7d87 0239 4afc c738

exp_avg f4 [25]
-3.6791782e-05 0.0015343401 0.00010072075 8.944764e-05 0.0009025825 5.5726916e-05 -0.0018548449 -0.00029021534
-0.0020421846 -0.0032356707 -0.002416142 -0.0009587511 0.00065817614 -0.0010165165 -0.0008258838 0.0002505829
0.0015893304 0.0013109709 0.00061332854 -0.0011687267 -0.001843408 0.003350254 0.00068008376 0.0003697667
0.0031942194
00000000: e050 1ab8 e91b c93a 0a3a d338 d695 bb38
00000010: 499b 6c3a 52bc 6938 441e f3ba 0b28 98b9
00000020: 2cd6 05bb 8c0d 54bb 2358 1ebb b254 7bba
00000030: 7489 2c3a a23c 85ba 2080 58ba ab60 8339
00000040: 1451 d03a e2d4 ab3a c8c7 203a f62f 99ba
00000050: 829e f1ba ef8f 5b3b a647 323a 3fdd c139
00000060: 1c56 513b

exp_avg_sq f4 [25]
2.1793318e-05 5.3098593e-05 2.5833582e-05 4.5639117e-06 2.3433695e-05 7.246305e-06 4.092266e-05 2.05959e-05
1.9046112e-05 2.4710194e-05 3.9704162e-05 6.883107e-06 1.8515142e-05 2.2818545e-05 3.98859e-05 8.328025e-06
3.339852e-05 1.5006575e-05 2.313071e-05 1.6683329e-05 3.2268934e-05 9.012122e-05 1.295169e-05 3.060522e-05
5.6061668e-05
00000000: cbd0 b637 2eb6 5e38 32b5 d837 b423 9936
00000010: 7a93 c437 4925 f336 5fa4 2b38 5cc5 ac37
00000020: 37c5 9f37 bd48 cf37 0588 2638 70f5 e636
00000030: f750 9b37 746a bf37 294b 2738 98b8 0b37
00000040: 6315 0c38 c0c4 7b37 d208 c237 2df3 8b37
00000050: 8158 0738 76ff bc38 164b 5937 1b5e 0038
00000060: c223 6b38

exp_avg f4 [25]
-0.001479697 0.0018114904 -0.0025041997 -0.000593954 0.004588225 -0.00034944082 -0.00042768894 0.003912614
-0.0062140054 -0.0028951024 -0.00092472445 0.0012994832 -0.00027421027 0.0023239772 0.00056545634 -0.0012004043
0.0030995393 -0.0040726494 -0.0032372833 -0.00029420992 0.0033921697 -0.0036654533 -0.0010265679 -0.003330816
-0.002066963
00000000: 64f2 c1ba 886f ed3a 801d 24bb 94b3 1bba
00000010: d258 963b 2735 b7b9 703b e0b9 6335 803b
00000020: db9e cbbb c2bb 3dbb 3569 72ba 6c53 aa3a
00000030: e1c3 8fb9 de4d 183b 223b 143a e256 9dba
00000040: a421 4b3b dc73 85bb 9a28 54bb 3040 9ab9
00000050: 2a4f 5e3b 1a38 70bb e78d 86ba d249 5abb
00000060: e275 07bb
